cpt_critic.pth (torch, 176068 bytes, 9 tensors)

fc1.weight f4 [256, 33]
000000 aa 6c 06 3e da 91 43 be 37 96 72 3d 4d 0a 8a 3e
       0.1312739 -0.19098607 0.059225287 0.26960984
000010 b1 bd e8 3e d6 00 24 3f 67 36 86 bc 9b 25 ba bd
       0.45457223 0.64063776 -0.016383363 -0.09089204
000020 11 d7 cf 3d 5d 51 85 bd 9d 5a 73 bc 14 5a 8b bd
       0.101484425 -0.065096594 -0.014853147 -0.068042904
000030 17 44 00 bc 02 b9 a7 be 31 6d 40 3e 5c 8b a7 be
       -0.007828734 -0.32758337 0.18791653 -0.3272351
000040 09 bf 92 3e 09 d0 53 3e 78 9d 44 be 32 f3 94 be
       0.28661373 0.20684828 -0.19200695 -0.29091793
000050 17 2b ef 3c f6 48 53 be 3e cb 58 3e aa d7 4a be
       0.029195352 -0.20633301 0.2117128 -0.19808832
000060 39 29 29 3c b5 3c 04 3d 69 65 cc bd 56 23 7e be
       0.01032477 0.032284457 -0.0998028 -0.24818167
000070 5f b3 cd bc fc f1 c9 3c 0a b2 55 3e 08 80 72 bd
       -0.025109945 0.02465152 0.20868698 -0.05920413
000080 ca ec f2 3c 44 81 3b be ad 68 2f 3e a0 61 1d 3e
       0.029653925 -0.1831103 0.17129774 0.15369272
000090 8a f1 88 3e 84 07 85 3f dd a2 3c 3e 91 c3 0f 3e
       0.2674678 1.0392919 0.18421502 0.14039446
0000a0 28 be cf 3c b3 43 75 be df 69 fd 3c 2c bf 75 3d
       0.025359228 -0.23951606 0.030934272 0.05999677
0000b0 52 61 03 3c e0 e5 c4 3d 1d 62 ae 3e fa ec 4b be
       0.008018808 0.09614158 0.3405923 -0.19914618
0000c0 20 99 a8 3d cc 1a a8 be 36 be 8e 3e ec 78 60 3e
       0.08232331 -0.32832944 0.27879494 0.21921128
0000d0 68 4d ce 3d 70 46 56 bc 00 21 9c bc 79 d1 c6 3d
       0.10073358 -0.013078317 -0.019058704 0.097079225
0000e0 9c cc cd 3d 18 56 53 bc 0b 73 6f 3e 7b 5a df bd
       0.10048792 -0.012898944 0.23383729 -0.1090593
0000f0 13 b8 58 3e 18 c3 f6 bd 78 71 fd 3c d6 b4 7b be
       0.21163969 -0.1204893 0.030937895 -0.24580702
000100 a8 06 1d bd 11 ad 16 3f c8 5f 83 be b9 01 ad 3e
       -0.038336426 0.5885783 -0.25659013 0.33790377
000110 14 89 93 bd 9b 0a 4d 3e b6 ac b9 be 9e 09 f8 3e
       -0.0720388 0.20023577 -0.3626458 0.48444837
000120 e9 0d 34 bf 87 5a a2 bd 72 ba a3 3d d7 20 0f bd
       -0.70333725 -0.07927423 0.07994546 -0.034943428
000130 ba 71 f3 bd 51 ef 16 bd 5c 49 27 bd c0 f1 bd bc
       -0.11886926 -0.036849324 -0.040841445 -0.023186564
000140 b7 21 bb bd 5a 0d 89 bc aa 76 dc bd ce af 9f be
       -0.0913729 -0.01673 -0.10764821 -0.31188816
000150 f1 69 9d be 1b bd 80 be 2d 6a 8d 3a a6 39 9f 38
       -0.3074489 -0.25144276 0.0010789089 7.592449e-05
000160 5f 91 8a 3d a8 9e 8c bd 37 6d 65 3b 77 89 08 be
       0.067660086 -0.06866199 0.0035007724 -0.13333689
000170 6f 37 28 be a7 3d 8d 3e 85 65 ec 3d 98 34 12 3d
       -0.16427396 0.275861 0.11542801 0.03569469
000180 eb 94 b9 be 0e fb 36 bd f1 c8 19 bf e5 43 5c 3e
       -0.36246428 -0.04467302 -0.6007224 0.21510275
000190 62 31 68 3e f7 67 8d 3d 95 82 d9 be 26 c1 47 3e
       0.22675088 0.06904595 -0.4248244 0.19507274
0001a0 c2 1c 37 3c 2a 54 05 bf 69 63 7e bd b4 04 8d bb
       0.01117629 -0.5208155 -0.062106524 -0.004303539
0001b0 a6 10 95 3d 78 48 a0 3c 20 44 cf bd ce ec e6 bd
       0.07278566 0.019565806 -0.10120416 -0.11275636
0001c0 f5 23 c9 3d 74 72 97 bc 9d ea 27 bd f1 4b 13 3f
       0.098213114 -0.018487193 -0.04099523 0.5753775
0001d0 72 a3 b6 3e a8 d1 ba 3c 5a 21 21 bf 87 82 78 3e
       0.35671574 0.02280505 -0.62941515 0.24268542
0001e0 fd 23 07 bd f8 32 02 bd c0 e8 37 bd d0 ba bb 3d
       -0.032993305 -0.03178689 -0.044899702 0.09166491
0001f0 46 35 30 bd 4f 6d 97 be 41 30 8a 3e fc eb aa bd
       -0.043019556 -0.29575583 0.2698994 -0.08345792
000200 60 56 72 3c 16 95 22 be 18 55 37 bd 57 f8 89 bd
       0.014791101 -0.15877184 -0.044758886 -0.0673682
000210 78 02 ca bc 70 c2 e3 bd 12 ed b9 bc a1 5e b4 3d
       -0.02465938 -0.111210704 -0.022696052 0.088071115
000220 28 e7 85 be 07 f4 54 3f 13 ff 47 bc 37 f4 40 3c
       -0.2615292 0.83184856 -0.0122068105 0.011776975
000230 57 43 34 3d cb 69 6f 3d 2a 86 6c bc 9a 05 82 bc
       0.044009533 0.0584505 -0.014436284 -0.015871812
000240 ef 76 38 3c 34 71 ff 3c 6d 4d 1d 3d 23 e5 d2 3b
       0.011258825 0.03118191 0.038403917 0.0064360066
000250 14 20 ff 3d b6 fe ca bd 94 3d 94 bd 6b cc 4e bf
       0.1245729 -0.099118635 -0.072383076 -0.8078067
000260 06 a0 88 bb 14 15 d8 3c fe 12 8c bc f0 16 ce bb
       -0.004169467 0.026377238 -0.0170989 -0.0062893555
000270 d5 7c 55 3c 14 d9 5b 3c 64 77 1e bd ee 45 79 3e
       0.013030251 0.013418455 -0.03868808 0.24343082
000280 10 3e 78 3c 80 0d 22 3a 80 c7 90 be 80 31 d6 ba
       0.015151516 0.0006181821 -0.28277206 -0.0016341656
000290 8b 1e c3 3f 91 65 0b 3e 8e e7 11 3d a1 02 9b be
       1.5243696 0.13612963 0.03562122 -0.30275443
0002a0 2b ff 07 3f b7 e6 dc be 98 41 04 bf 7e a9 17 be
       0.5312373 -0.4314477 -0.5166259 -0.1481075
0002b0 67 74 88 3c c9 48 ef 3e ff 0d 22 bb 64 4b 72 bd
       0.016657067 0.46735218 -0.002472758 -0.05915393
0002c0 e3 33 a4 3c 8b 3f 20 bd 3c 4a 20 be 52 9f 34 3e
       0.020044273 -0.0391231 -0.15653318 0.17638901
0002d0 5e db 71 3e 0e d8 2e be 81 3e 6b 3e b6 c7 1c bf
       0.23618838 -0.17074606 0.22973062 -0.61242235
0002e0 09 32 89 3e 12 4e 62 3b e9 74 88 bd 4f 78 35 bd
       0.26795986 0.0034531397 -0.06662924 -0.04430419
0002f0 51 73 9f bd 26 57 94 3d af b5 12 3e b3 da 10 3e
       -0.07785667 0.07243185 0.1432712 0.14145927
000300 81 33 46 3e 47 cc 0b 3e 4c 40 c9 3c d7 7d 15 be
       0.19355585 0.13652144 0.024566792 -0.14598785
000310 b4 df f6 3c 31 f5 0a 3e 82 cf c1 3a a4 0d ff 3d
       0.030135967 0.13570096 0.0014786574 0.124537736
000320 6c e5 3d 3d 83 23 55 bf 43 29 8e 3c 60 65 da 3e
       0.046361372 -0.8325731 0.01735366 0.42655468
000330 38 b0 df 3e a1 36 f3 3d 14 84 50 be 25 05 19 3e
       0.43689132 0.11875654 -0.20362884 0.14943369
000340 e5 87 bb bc dd a2 15 3d ae 88 21 be f8 8f ea bd
       -0.022891948 0.03653227 -0.15774795 -0.11453241
000350 be 6d 24 3e 16 7e 49 bd 94 2c c2 bc ad fc 05 3f
       0.16057488 -0.04919251 -0.023702897 0.5233868
000360 f4 93 d8 be 6a 1c 98 3e d8 f8 30 bd f3 9f 70 bd
       -0.4230038 0.29709178 -0.043206066 -0.05874629
000370 fb b8 1c 3d 12 dd 80 bd dd 4a 4b be e9 32 bb bd
       0.03826235 -0.06292166 -0.19852777 -0.0914057
000380 c1 f8 45 3d 2a 99 ec 3c 6f 60 5d 3e 2c d9 30 bd
       0.048332933 0.028881628 0.21618818 -0.04317586
000390 25 4f ac bc 38 ec 48 bc a4 50 0d 3f 92 0e ba 3c
       -0.021033833 -0.01226335 0.5520117 0.022712026
0003a0 77 54 2a bc 37 96 ed bc 78 a8 db 3d b3 08 1d 3f
       -0.010396115 -0.029002292 0.10725492 0.613414
0003b0 8e cf d2 3e aa e6 19 bf 53 23 12 3e 2a 70 0c 3e
       0.41173977 -0.6011759 0.14271288 0.13714662
0003c0 b3 f7 13 3e 33 d0 de bb 9e 21 65 bc 48 a2 93 3a
       0.14449959 -0.0067997216 -0.013985066 0.0011263574
0003d0 06 da b8 3d 37 21 d0 3e 8b e2 f9 3d d5 04 86 3e
       0.0902596 0.4065034 0.12201413 0.26175562
0003e0 e4 75 43 3e 44 f9 06 3f 43 73 13 3e df 1e 13 bc
       0.1908794 0.527241 0.14399438 -0.008979528
0003f0 7c b9 62 3d 20 80 06 bd db 0e 29 be 31 a5 2a 3d
       0.055352673 -0.032837033 -0.16509573 0.041661445

fc1.bias f4 [256]
000000 8a e8 26 3e 2b 01 1d be 1a 9a 2c be f3 78 4a be
       0.16299644 -0.15332477 -0.1685566 -0.19772701
000010 dc 49 a6 be 0c 1c 69 be 5c c1 8e bd c5 72 8b 3d
       -0.32478225 -0.22764605 -0.06970474 0.06809
000020 18 25 82 be e4 3d b3 be 17 b1 bc be e9 ad 6d bd
       -0.25418925 -0.35008156 -0.3685386 -0.05802718
000030 98 da 2a bd d7 42 79 be 5b e7 f8 bd 77 89 3a be
       -0.041712373 -0.24341904 -0.121535026 -0.18216501
000040 de 26 55 be 90 2e 39 3d a0 41 e3 be f9 63 b1 bc
       -0.20815608 0.04521042 -0.44386005 -0.021654116
000050 d0 a9 87 be aa a5 81 be b2 b1 14 bd 36 56 28 be
       -0.26496744 -0.25321704 -0.036302276 -0.16439137
000060 f7 49 d3 bd 50 7a 94 3d 2b 0b dc 3c 13 af 17 bf
       -0.10316842 0.07249892 0.026860794 -0.5925152
000070 79 2b 8e be 86 5b f1 3d cd 80 77 bd 38 ed aa be
       -0.27767542 0.11785035 -0.06042557 -0.3338411
000080 a6 52 be bd 1a 81 9c be d3 a3 89 be c9 b6 57 be
       -0.09293108 -0.30567247 -0.268828 -0.21065821
000090 73 2f 8e be de 06 7d be c9 9c 15 be 9f 74 53 3e
       -0.27770576 -0.24709651 -0.1461059 0.20649956
0000a0 02 ad ca be 40 5f d3 3d 86 99 05 bf 6d aa 98 be
       -0.3958512 0.10320902 -0.52187383 -0.29817525
0000b0 ef 6a 1d be a4 e4 65 be 2a bb 34 3e b3 c4 73 3c
       -0.15372823 -0.224505 0.17649522 0.01487844
0000c0 c7 0c b3 3d a0 f2 d4 be 54 67 f3 be 9f 2c 31 be
       0.087426715 -0.41591358 -0.4753977 -0.17302178
0000d0 49 c6 03 3e 35 d5 4f bd 69 e3 9b bd 94 c4 ca be
       0.12868609 -0.05074044 -0.076117344 -0.39603102
0000e0 bb 7a 8a be 31 a2 35 be 1f 09 44 be e4 d6 8c bc
       -0.2704676 -0.17737652 -0.19144104 -0.017192312
0000f0 a2 5a b0 be c6 f8 68 be 4d db 92 be fa 34 52 be
       -0.34444147 -0.2275115 -0.28682938 -0.20528021
000100 3c 95 7f be db 8a dd be 65 7b 12 3c b6 36 32 be
       -0.24959272 -0.4327 0.008940552 -0.17403683
000110 f7 e8 7d 3d 33 63 8e bd 59 83 1d be 6e 82 4e be
       0.06198975 -0.069525145 -0.15382136 -0.20166942
000120 5c e6 af 3d be c1 66 be 35 35 88 be ec 4e ab be
       0.085888594 -0.22534844 -0.26603094 -0.3345865
000130 5d 63 fd be 9d 93 81 be 06 33 60 bd 98 0e 9f be
       -0.4948987 -0.25307932 -0.05473616 -0.31065822
000140 8a ad 80 3e 08 77 85 bd 68 67 94 be 40 68 ea be
       0.251324 -0.06516844 -0.28985143 -0.4578266
000150 34 41 7f be 21 d5 e6 be ce 61 9b be b6 0c fb bd
       -0.24927217 -0.4508448 -0.30348057 -0.12258284
000160 d8 98 2c be d4 13 5f be 99 cf 9f 3d bd e3 95 be
       -0.1685518 -0.21784908 0.07803268 -0.29275313
000170 2e fb 5b be 7a bb c2 be a0 90 26 bd 4d 6a ed be
       -0.21482536 -0.38033658 -0.04066527 -0.46370164
000180 da c4 7e bd 67 d0 72 3d dd ac 52 be 96 fc 69 be
       -0.06219945 0.05928078 -0.20573755 -0.2285026
000190 f3 0f 92 be 87 91 16 be 8b bd 41 be 63 98 03 bf
       -0.28527793 -0.14703952 -0.18919961 -0.514044
0001a0 24 9d 9f bd 36 1d a8 be e1 8a 28 be 07 26 ba be
       -0.07793644 -0.32834786 -0.16459228 -0.36357138
0001b0 19 25 73 be 5f fb 3c 3e b6 99 ea be 5d 2f 21 3c
       -0.2374462 0.18455265 -0.45820397 0.009837952
0001c0 85 67 9c bd ae 68 a0 bd 1e 45 38 be bf 29 42 be
       -0.07636932 -0.07832466 -0.17995116 -0.18961237
0001d0 64 9e 5d be da 0b ad be 9f 28 aa be 94 0b 28 3d
       -0.21642452 -0.33798105 -0.33234116 0.041026667
0001e0 d9 24 99 be ad 02 1a bf 65 b4 b9 be 63 5d fe bb
       -0.29910925 -0.6016033 -0.36270443 -0.0077625974
0001f0 eb 7a 88 bd 38 fb 97 be 13 ad bf bd d8 68 af be
       -0.0666407 -0.29683852 -0.09359183 -0.34259677
000200 08 e7 31 be eb 44 2d be c1 8b 85 be 1d b7 2e bc
       -0.17373288 -0.16920821 -0.26083186 -0.010663775
000210 6c 81 31 bd 6d 0b 92 3a a0 aa 86 bd 51 5e 8e be
       -0.043336317 0.0011142321 -0.06575513 -0.27806333
000220 fa 3b 8f 3d 9e fb df bd 2c fc 8b 3d b4 ff 65 3e
       0.069938615 -0.10936664 0.06835207 0.22460824
000230 8f a3 fa be 6f d7 47 be 3a 85 f6 be 39 2e d7 be
       -0.4895291 -0.19515775 -0.4814852 -0.42027453
000240 a8 5d 07 3d f6 69 19 3e 26 b5 c2 be 44 89 9b 3b
       0.033048302 0.14981827 -0.3802883 0.004746588
000250 6d 00 44 be 52 db c9 bd 04 f2 0c 3e f5 4d fc bd
       -0.19140787 -0.09856285 0.13764197 -0.123195566
000260 8a 87 27 be 89 6b 4c be d9 91 d6 be d8 73 7f be
       -0.16360298 -0.19962896 -0.41908148 -0.24946535
000270 46 4a a4 bd 03 a2 85 bd 18 21 52 3e 44 5d 74 be
       -0.08021979 -0.06525042 0.20520437 -0.23863703
000280 3c de 8a be 62 c3 0c be 74 88 70 be 21 95 73 be
       -0.27122676 -0.13746408 -0.23489553 -0.23787357
000290 f4 8e 7f 3d fe 87 04 be c9 83 5b be 8f dc 03 bf
       0.06239219 -0.12942502 -0.21436991 -0.5150842
0002a0 d3 16 74 3d 6d 36 04 bf 19 ab 17 be 16 84 9f 3d
       0.05959208 -0.5164555 -0.14811362 0.07788865
0002b0 61 36 a3 bc c8 09 ca 3d bd e6 2d be bc d7 3d 3e
       -0.01992339 0.09865147 -0.16982551 0.18539327
0002c0 31 25 89 be b3 10 1f 3e ec 00 0a be ca f2 73 3e
       -0.26786187 0.15533714 -0.13476914 0.23823085
0002d0 06 f2 ae bd a3 a6 7b be a6 c7 b8 be 28 ce 61 be
       -0.08542256 -0.24575286 -0.3608982 -0.22051299
0002e0 29 2b 2f be 16 a9 2f be da 71 ac be 43 44 8e bd
       -0.17106308 -0.17154345 -0.33680612 -0.06946614
0002f0 a0 b2 2f be e0 e6 69 be a9 58 2b be 3b 84 a7 be
       -0.17157984 -0.22841978 -0.1673304 -0.3271807
000300 54 64 28 be f8 96 fe bd 99 64 0d be 79 bb 08 3c
       -0.16444522 -0.12431139 -0.13807906 0.008345478
000310 90 24 cf 3d 81 25 26 be e9 52 45 3d a4 c2 81 bd
       0.101143956 -0.16225244 0.048174772 -0.06335953
000320 3c 33 b4 be 39 9c a3 bd 70 9c 7b be a8 9c 67 be
       -0.3519534 -0.079887815 -0.24571395 -0.22618353
000330 bc 0c b2 be 2f 89 5d be 6d ed 79 be 29 5a 0d be
       -0.3477534 -0.21634363 -0.24406977 -0.13803925
000340 f4 b1 04 bd d1 3c 97 be d1 5f 0c be bb 01 8b be
       -0.03239627 -0.29538587 -0.13708426 -0.27149758
000350 e2 f9 0c 3e 36 97 34 be ad 23 d1 ba 31 94 0c be
       0.13767198 -0.17635807 -0.0015956067 -0.13728406
000360 b4 47 b0 be 02 fa 5d be 18 5f 32 be 1a 38 6b be
       -0.34429705 -0.21677402 -0.17419088 -0.2297062
000370 df 10 83 be 14 5f fe bd db bd 19 be f3 f0 98 bd
       -0.2559881 -0.124204785 -0.1501383 -0.074678324
000380 3b 8f 72 be 99 37 86 be 3e 84 0d be f1 65 d3 be
       -0.2368745 -0.26214293 -0.13819978 -0.41288713
000390 c6 d8 84 be fd a1 5b bd 5a 38 f3 bd fa fb ad be
       -0.25946635 -0.05362128 -0.118759826 -0.33981305
0003a0 1c f9 84 be 00 14 94 be 68 ad b8 be 5b 00 fd bd
       -0.25971305 -0.2892151 -0.36069798 -0.123535834
0003b0 eb 87 5d be 39 66 a7 be 32 26 79 be 3e 46 50 be
       -0.2163388 -0.32695177 -0.24330977 -0.20339295
0003c0 f5 69 7b be 78 b8 2f 3e 56 fb 59 be ce 91 69 bd
       -0.24552138 0.17160213 -0.21287283 -0.057023816
0003d0 29 1f e4 bd 03 a4 40 be 96 57 2e 3e fb 99 d0 be
       -0.11138756 -0.18812566 0.17025599 -0.40742478
0003e0 66 85 f7 ba ec 44 8f be c9 b6 81 be eb 5b bf 3e
       -0.001888436 -0.2798227 -0.25334767 0.37374815
0003f0 b9 70 3c be 3c a8 ae bd 43 c0 ec be 48 b3 4d bc
       -0.18402375 -0.08528182 -0.46240434 -0.012554951

bn1.weight f4 [256]
000000 05 00 3c 3f 14 81 2c 3f 1a 06 55 3f ff 62 e3 3e
       0.7343753 0.6738446 0.83212435 0.44411466
000010 8f c0 66 3f 92 80 55 3f eb 7a 2d 3f a6 6b 22 3f
       0.9013757 0.8339931 0.6776568 0.6344551
000020 35 b9 84 3f 5c 3a 91 3f ee 93 46 3f a0 fb 05 3f
       1.0369021 1.1345935 0.7756947 0.52337074
000030 e3 95 09 3f 04 79 37 3f 15 db 58 3f dc e2 55 3f
       0.53744334 0.7166903 0.8470929 0.83549285
000040 96 00 61 3f 6d 0a 20 3f 53 39 24 3f ca 5b 6a 3f
       0.8789152 0.6251591 0.6414997 0.9154631
000050 b6 59 0b 3f e3 d5 4c 3f 8b ba 5b 3f 4c 7c 68 3f
       0.54433763 0.80013865 0.85831517 0.9081466
000060 a2 98 41 3f d2 3d 42 3f b2 aa 0f 3f 71 3f 5c 3f
       0.75623524 0.7587558 0.56119835 0.86034304
000070 28 94 ee 3f 99 15 2b 3f 37 b2 6d 3f 17 bf 84 3f
       1.8638964 0.6682983 0.9285006 1.0370816
000080 b3 7e 76 3f 7d ec 31 3f 45 f1 bd 3f 30 b5 64 3f
       0.9628708 0.6950148 1.4839255 0.8933897
000090 7c c7 3d 3f 1a da 38 3f dd 1e 34 3f cb 13 1b 3f
       0.74132514 0.72207797 0.70359594 0.60577077
0000a0 12 54 25 3f 31 5b 19 3f f0 4b 6e 3f 6f f7 62 3f
       0.64581406 0.5990477 0.9308462 0.88658804
0000b0 dc 4e 10 3f 21 e2 58 3f 2a 22 8d 3f 14 ac 31 3f
       0.5637033 0.84720045 1.1026051 0.69403195
0000c0 96 b9 d8 3f 03 fe 47 3f a4 22 0f 3f 36 77 16 3f
       1.6931636 0.78121966 0.5591223 0.5877565
0000d0 0c 16 94 3f 01 91 41 3f 28 1b 10 3f 6d e3 32 3f
       1.1569228 0.75611883 0.5629144 0.69878274
0000e0 e1 fc 33 3f be 29 f6 3e a2 47 20 3f 73 ea 43 3f
       0.7030774 0.48078722 0.62609303 0.76529616
0000f0 7a ac 2c 3f 6f d6 e0 3e e4 95 37 3f 19 d8 2c 3f
       0.6745068 0.439136 0.7171309 0.6751724
000100 96 94 32 3f e6 71 50 3f 1f 39 09 3f 90 f2 26 3f
       0.69757974 0.81423795 0.53602785 0.6521387
000110 29 8b 2e 3f e0 b7 57 3f bb 84 8b 3f 84 b3 70 3f
       0.6818109 0.84264946 1.0899881 0.9402392
000120 c2 06 2c 3f 1f f5 0b 3f fa 79 85 3f e7 67 c1 3f
       0.6719781 0.546709 1.0427849 1.5109833
000130 18 32 79 3f 9c be 58 3f 51 4d 39 3f d0 ac 63 3f
       0.9734206 0.84665847 0.723836 0.88935566
000140 47 f6 55 3f 15 50 22 3f 5d 58 47 3f 3d 3b d0 3e
       0.83578914 0.63403445 0.77869207 0.40670195
000150 86 b2 5f 3f e4 26 26 3f b8 8b 43 3f 5d 77 47 3f
       0.8738178 0.6490309 0.7638507 0.7791651
000160 6b aa 2c 3f 12 a5 40 3f eb d7 55 3f 6b 97 26 3f
       0.6744754 0.7525188 0.8353259 0.65074795
000170 8c 2d 23 3f b8 5f 39 3f 73 38 31 3f c5 f4 1e 3f
       0.63741374 0.7241168 0.6922676 0.6209224
000180 10 af 53 3f 48 e1 1d 3f b8 d6 17 3f e4 45 14 3f
       0.82689 0.61671877 0.5931201 0.57919145
000190 97 7f 96 3f ac c5 17 3f 0b 92 11 3f b9 3e 29 3f
       1.1757687 0.59286 0.5686347 0.6611133
0001a0 64 6b 48 3f cc 2e b8 3f ae b8 22 3f b4 54 5d 3f
       0.78288865 1.4389281 0.6356305 0.8645737
0001b0 3c 9a b3 3e f6 85 75 3f dc 11 40 3f 73 d5 28 3f
       0.3507861 0.95907533 0.7502725 0.659507
0001c0 e4 8a 1b 3f 86 53 3f 3f 5a ef 55 3f f4 2c 1c 3f
       0.60758805 0.7473682 0.83568347 0.61006093
0001d0 37 94 3b 3f 94 67 4c 3f 35 7e 3b 3f c5 73 06 3f
       0.7327303 0.7984555 0.7323945 0.525204
0001e0 fe af 26 3f cd 66 83 3f 56 2b 1f 3f 08 5e 4b 3f
       0.6511229 1.0265747 0.621755 0.79440355
0001f0 d9 a1 5e 3f 49 da 3e 3f c5 7c ed 3e 21 7e f8 3e
       0.8696571 0.74551827 0.46384254 0.4853373
000200 5d 5e 62 3f 5b 2f 31 3f 10 fa 16 3f 49 f1 0f 3f
       0.88425237 0.69212884 0.58975315 0.56227547
000210 f1 8a 32 3f e7 6c 2f 3f 4e d1 32 3f b4 bd 77 3f
       0.6974326 0.68525547 0.69850624 0.9677384
000220 fb 1f 6e 3f f8 ea 97 3f 61 da 3f 3f 8e bb 0a 3f
       0.9301755 1.1868582 0.74942595 0.54192436
000230 cd 41 37 3f 9a fe 3b 3f 17 67 47 3f d4 57 51 3f
       0.7158478 0.73435366 0.7789168 0.8177464
000240 10 42 18 3f 5e 52 54 3f 24 a6 1b 3f 98 39 34 3f
       0.59475803 0.8293818 0.60800385 0.7040038
000250 d9 19 f1 3e 36 fa 08 3f cd 97 53 3f ad 71 14 3f
       0.47090033 0.5350679 0.82653505 0.57985955
000260 a5 d9 4f 3f 37 01 69 3f 96 ca 21 3f 03 16 40 3f
       0.81191474 0.9101748 0.63199747 0.7503359
000270 74 c1 0a 3f cf 2f 33 3f a9 90 1b 3f 25 b0 b5 3f
       0.54201436 0.69994825 0.6076761 1.419438
000280 0a 9f 3d 3f da 46 1c 3f 1f 6f 6a 3f 53 75 0b 3f
       0.740708 0.6104561 0.9157581 0.544759
000290 c9 44 b2 3f 2e 8d 55 3f 78 f6 40 3f 91 75 23 3f
       1.3927242 0.8341855 0.7537608 0.6385127
0002a0 b4 1f 2b 3f 8b b9 0a 3f 55 37 4f 3f 6f 97 23 3f
       0.6684525 0.54189366 0.80943805 0.63902944
0002b0 f7 c3 2c 3f 1f 34 aa 3f 6d 22 73 3f 63 46 66 3f
       0.6748652 1.3297156 0.94974405 0.8995115
0002c0 c4 68 7a 3f ba 26 2a 3f 64 a1 a2 3f 44 f0 22 3f
       0.9781611 0.6646534 1.2705503 0.63647866
0002d0 13 fa 92 3f 52 f7 4b 3f 3c 27 9b 3f 17 51 10 3f
       1.1482567 0.79674256 1.2121348 0.56373733
0002e0 1a b5 3d 3f 3f 1a 24 3f 7e b2 24 3f 9f 21 f5 3e
       0.74104464 0.6410255 0.6433486 0.47877213
0002f0 aa c0 4d 3f b2 58 46 3f b6 c6 1a 3f 82 09 16 3f
       0.8037211 0.7747909 0.6045946 0.5860826
000300 bc 14 17 3f 10 11 39 3f dc 7c 43 3f f5 a9 20 3f
       0.59016013 0.7229166 0.76362395 0.62759334
000310 55 e0 35 3f 66 31 0f 3f 8d 95 38 3f 30 bf 16 3f
       0.7104543 0.5593475 0.72103196 0.5888548
000320 37 c3 15 3f 67 01 3b 3f 3b 51 4f 3f ea 31 0b 3f
       0.58501 0.73049015 0.8098332 0.5437304
000330 13 59 2d 3f d3 ef 4c 3f f6 e2 e7 3e a4 eb 03 3f
       0.6771404 0.8005344 0.45290345 0.51531434
000340 c3 2c 32 3f 96 24 4a 3f 7e 36 c5 3f 17 7f 04 3f
       0.6959955 0.78962076 1.5407255 0.51756424
000350 52 3b 8b 3f fa ce 50 3f 95 de 08 3f c2 d5 6d 3f
       1.0877478 0.8156582 0.53464633 0.92904294
000360 9a 4a 54 3f de eb 07 3f 84 91 24 3f 43 fc 6b 3f
       0.8292633 0.5309428 0.6428454 0.92181796
000370 10 2a 1e 3f c6 8e 36 3f 03 57 50 3f 56 28 50 3f
       0.6178293 0.71311605 0.8138277 0.8131155
000380 dc b5 a6 3f b6 a0 17 3f e2 ad 06 3f 60 ad 13 3f
       1.3024249 0.592296 0.52609074 0.57686424
000390 0d 19 41 3f c8 d8 48 3f f8 2d 1a 3f ed 18 41 3f
       0.7542885 0.7845578 0.6022639 0.7542866
0003a0 53 e1 23 3f da 2c 45 3f 05 65 43 3f 97 53 31 3f
       0.6401569 0.77021563 0.7632602 0.6926817
0003b0 3b f8 74 3f fb 42 0f 3f 1b c3 31 3f f4 57 4f 3f
       0.9569127 0.5596158 0.6943833 0.8099358
0003c0 3d b6 36 3f 8a f2 21 3f 89 03 4b 3f 64 59 2f 3f
       0.71371824 0.6326071 0.7930227 0.68495774
0003d0 e5 a8 64 3f 8b 6e 45 3f 56 82 f7 3e e8 c5 5e 3f
       0.8932021 0.771218 0.48341626 0.8702073
0003e0 55 e7 26 3f fa ed 2d 3f 72 3b 58 3f d4 d7 1e 3f
       0.65196735 0.6794125 0.84465706 0.6204808
0003f0 4d e7 5e 3f 60 16 44 3f 5d 1d 3a 3f b9 bf 35 3f
       0.87071687 0.7659664 0.72701055 0.7099567

bn1.bias f4 [256]
000000 9a c7 02 3f f0 23 21 3d cc e7 89 3e 36 a2 24 3d
       0.5108582 0.039340913 0.2693466 0.04019376
000010 88 40 77 3e 8d f9 85 3e ca 19 f8 3d ae 6a 52 be
       0.2414571 0.26166955 0.12114294 -0.20548508
000020 24 21 1f bd bc ca c3 3e ec 2f 5d bd 0b f3 a5 3e
       -0.038849965 0.38240612 -0.05400078 0.3241199
000030 3e b4 9c 3d d3 12 9e 3d 69 7d 87 3e 25 43 6e 3e
       0.07651566 0.07718434 0.26462868 0.23267801
000040 46 93 cb 3e f6 2b d4 3e f9 05 43 3e 19 ed 34 3e
       0.39760798 0.4143979 0.19045247 0.1766857
000050 2a e0 50 3d 7f 13 4e bd 13 40 00 bd f9 5f 9f 3e
       0.05099503 -0.05031156 -0.031311106 0.3112791
000060 9e 5d b5 3d 8c 48 65 3e e7 72 80 3e 6d 9f f9 3d
       0.08855747 0.22390956 0.25087664 0.12188611
000070 3c 74 b7 3d 22 f8 d7 3e cd 57 03 3f 55 86 61 3e
       0.08957717 0.42181498 0.5130585 0.220239
000080 28 94 5a bd 76 c6 65 3e 71 3c 2c 3e 53 ce 89 3e
       -0.05336395 0.22438988 0.16819932 0.26915225
000090 ee e4 4e 3c d7 bd ac be 7a 83 de bc 90 f0 89 3e
       0.012627823 -0.33738586 -0.027162302 0.26941347
0000a0 9c 6c 62 be f9 b2 45 be 3b 4a 64 3e de f0 da 3e
       -0.22111744 -0.19306554 0.22293942 0.42761892
0000b0 90 17 35 3d 3c d6 00 3e 32 dd ab 3e 3a 86 05 bd
       0.044211924 0.12581724 0.33567196 -0.03259871
0000c0 02 24 d3 3c 55 34 00 3f 49 41 56 3e cd 43 c7 3e
       0.025774006 0.5007985 0.20923342 0.38918915
0000d0 61 f7 d2 3d ac 78 7d bd 00 e3 3d bc 38 97 1a be
       0.1030109 -0.06188266 -0.011589766 -0.15096748
0000e0 18 89 e8 3c dc 13 81 be 35 b8 22 3e 04 e0 68 3e
       0.028385684 -0.25210464 0.15890582 0.22741705
0000f0 a9 ef 85 3e 60 b3 0f 3f 19 5f 83 3e 89 31 06 3e
       0.2615941 0.5613308 0.2565849 0.13104834
000100 8e 3f 58 3e 9f b9 0c 3e 65 51 4b be 82 8a 81 3d
       0.21117994 0.13742684 -0.19855268 0.063252464
000110 ef 8d 17 3d af 85 8a 3e 33 63 44 3c f4 c5 ca 3e
       0.037000593 0.27055117 0.011986542 0.3960415
000120 53 2e 0c 3f db 73 ac 3d d7 7f 9a 3e 1f f6 06 3f
       0.54758185 0.08420535 0.3017566 0.527193
000130 51 2e 7e 3d 08 7c 90 3d 07 67 1a 3f fb a6 76 3e
       0.06205589 0.07054907 0.6031346 0.24087135
000140 76 05 69 3e 4e a7 20 be 0d 4a d7 3e 63 4b 01 3e
       0.2275599 -0.15688822 0.42048684 0.12626414
000150 22 70 a3 3e 1d 55 8f 3e 94 d5 58 be 73 7a 1a 3d
       0.31921488 0.27994624 -0.21175224 0.037714433
000160 e2 50 67 3e 1b e9 be bd 74 35 8d 3e f8 29 91 3e
       0.22589448 -0.09321805 0.27579844 0.28352332
000170 61 ac 43 3e 7c 1a 8e 3e 78 19 a1 3e 56 dc 0c 3e
       0.19108726 0.2775458 0.31464744 0.13755926
000180 0d 16 07 bd e0 a5 10 3e 1e fa 73 be 04 ff a9 3e
       -0.032980014 0.14125776 -0.23825881 0.33202374
000190 22 53 53 3e 6b 87 30 3e 83 f8 08 3e 94 70 d4 bc
       0.20637181 0.17239158 0.1337605 -0.025932588
0001a0 ad f6 63 be 93 79 81 bb bc bd 8b 3e 6c af 03 3f
       -0.22262068 -0.0039512604 0.27293193 0.5143955
0001b0 a4 1d 85 be 7c 9d 29 bd 61 b5 aa 3d 43 95 8a 3e
       -0.25999177 -0.041409954 0.083353765 0.27067003
0001c0 c0 65 aa bd ca a8 84 3e de 35 46 3e e7 bd 4c 3e
       -0.083201885 0.25910026 0.19356486 0.19994317
0001d0 7e 7c 7f 3e 4e 2b e3 3d 95 38 92 3d b6 b9 23 bf
       0.24949834 0.11092244 0.071396984 -0.6395525
0001e0 2b 97 a2 3d 86 ad bf 3e b4 39 7e 3e f6 28 8c 3d
       0.07938989 0.37437075 0.248267 0.0684375
0001f0 14 29 e4 3e 4a ec 86 3d b3 b8 46 3e aa 02 25 be
       0.4456259 0.06588037 0.19406395 -0.16114298
000200 e5 69 a6 3e b1 c1 d0 3d 44 54 5b 3e 75 9c 63 3e
       0.32502666 0.10193194 0.21418864 0.22227652
000210 cc 6c 85 bd 69 9f 93 3d 19 e5 b8 3d 58 0d 6f 3e
       -0.06514892 0.072081394 0.09028072 0.23344934
000220 2c c5 ea 3e 8c f8 a3 3e 79 73 c9 3e de 0e 18 be
       0.45853555 0.32025564 0.3934591 -0.14849421
000230 e4 5b b7 bd a4 8d f4 3c 74 7d cf 3e bb c9 bb 3e
       -0.089530736 0.029852696 0.405254 0.36677346
000240 40 4c 15 3e ec 3d a8 bd a0 10 66 bd 4b d6 64 3d
       0.14579868 -0.08214936 -0.0561682 0.05586843
000250 98 6b 8a bc 93 6d 98 be 9d 8a c5 be 49 84 db 3c
       -0.016897008 -0.29771098 -0.38582316 0.026796477
000260 be 9a 9b bc 2e d1 a4 3e b5 a9 91 bc 79 b0 1e 3e
       -0.018994685 0.3219084 -0.017781118 0.15497006
000270 29 48 08 bc f2 f6 b9 3e c6 53 bc 3e a6 e1 bb 3e
       -0.008317986 0.36321217 0.36782664 0.36695594
000280 a8 d3 03 3f 1e 04 df bd 8f 53 9e be e7 9d 7e 3e
       0.51494837 -0.10889457 -0.30923125 0.24864922
000290 79 21 3b 3e fa 4b 75 3e 92 d8 3c 3e 6b 8b 2b 3e
       0.18274488 0.23954764 0.1844199 0.16752402
0002a0 d7 83 d3 3d 9f 81 ac 3e ff 26 4a 3e 14 bd 76 3e
       0.10327881 0.33692643 0.19741438 0.24095565
0002b0 6c 74 2d 3e 2f ac 00 3f 47 44 ba 3e d4 50 00 3e
       0.16938943 0.5026273 0.36380216 0.12530833
0002c0 6f 93 0f 3e bd 10 f9 3d a0 77 c1 3a fe dc c4 3e
       0.14021085 0.12161396 0.0014760382 0.38449854
0002d0 47 d7 2f 3e ec 4a 08 3f 8f dd c5 3e 64 9b 82 3e
       0.17171966 0.5323932 0.38645598 0.2550918
0002e0 de e8 68 3e 54 6c dc 3e bf 53 2a bd 50 38 8e 3e
       0.22745082 0.43051398 -0.041583773 0.27777338
0002f0 27 cc 87 3e 12 e7 15 3f f0 8a 3b be 7a e5 7b 3c
       0.26522943 0.5855571 -0.18314719 0.015374536
000300 a7 f0 b6 3e a4 92 e2 be 78 48 59 3e 0e 5e 35 3e
       0.35730478 -0.44252503 0.21219051 0.1771166
000310 4a 4d 57 3e 4c 9f 17 bf 1f 5a 2f 3e a7 07 d9 3d
       0.21025577 -0.5922744 0.17124222 0.10597163
000320 60 93 b6 3d 8a ce ca 3a ab d2 47 3e 36 ed aa be
       0.08914828 0.001547293 0.19513957 -0.33384103
000330 b8 85 0c 3e d1 d3 56 bb cb 22 34 3e 9b d3 5b be
       0.13722885 -0.003278006 0.17591397 -0.2146744
000340 db 0f 82 3e 77 c8 5a bd 3e c9 3a 3e 02 74 ef 3e
       0.25402722 -0.053413834 0.1824083 0.46768194
000350 be 70 7d 3e bd b1 ed 3d f1 a9 8a 3d 43 49 9c 3e
       0.24750039 0.116061665 0.06770695 0.30524644
000360 28 80 48 3e dd 8f b1 3e 97 1e 6f 3e 7f 30 ea 3e
       0.19580138 0.3468007 0.23351513 0.45740125
000370 0e 9f 51 3e 7b 04 b4 3e c2 98 bd 3e 4e 87 28 be
       0.20470831 0.35159668 0.37030607 -0.16457865
000380 e3 64 26 3e 92 0b 87 3d 25 b3 d3 bb ef 6b f5 3e
       0.16249423 0.06594004 -0.0064605647 0.4793391
000390 31 e8 a1 be 3a ae bb 3e ff 21 9a bd 1c 44 eb 3e
       -0.3162246 0.36656362 -0.075260155 0.459504
0003a0 f3 1b cc 3d 8b dd a5 be 61 5b a0 3e 2c 60 22 3e
       0.099662684 -0.32395586 0.31319717 0.15856999
0003b0 e8 f0 d3 3d 7f 01 13 3d af 52 8f 3e 36 d9 6c 3e
       0.103486836 0.0358901 0.2799277 0.23129734
0003c0 3a 09 3b 3e 79 fb 1e 3e 4a f2 0d 3d 25 01 9e 3e
       0.18265238 0.15525617 0.034654893 0.30860248
0003d0 13 83 50 3e f8 09 a7 3d 25 eb 12 3e 9b 30 e9 3e
       0.20362501 0.08156198 0.14347513 0.45544896
0003e0 f4 d2 84 3e 41 57 11 3e 54 9f 8f 3e e8 07 5b be
       0.25942194 0.14193441 0.28051245 -0.21389735
0003f0 53 9a 62 3e 17 63 e0 bd da d6 4e 3e b2 13 2b bc
       0.22129183 -0.109564 0.20199147 -0.010441707

bn1.running_mean f4 [256]
000000 fa 3b a0 3f 8e d4 f7 3e 6a c1 16 3e 24 f7 09 3e
       1.2518303 0.48404354 0.14722219 0.13473183
000010 58 a5 01 3e 6b e4 a7 3e 35 22 1a 3e 5a ed a2 3e
       0.1266073 0.32791457 0.15052111 0.3182171
000020 8c 61 32 3e 4d 2b 58 3e a9 ae 14 3e f1 70 2f 3f
       0.17420024 0.21110268 0.14519753 0.6853171
000030 8c cb 29 3e e4 86 9c 3e 3f de 6a 3e df b4 ba 3d
       0.16581553 0.30571663 0.22936343 0.0911653
000040 45 01 30 3e 58 32 be 3e f5 4b 5d 3e ea a0 fb 3d
       0.17187984 0.37147784 0.21611007 0.12286551
000050 f8 65 df 3e 83 a2 ef 3d 92 71 29 3e e2 9f 40 3e
       0.43632483 0.117009185 0.1654723 0.1881099
000060 bc 34 90 3e e0 c5 fe 3e aa 18 c0 3e 7d e8 3b 3e
       0.28165233 0.49760342 0.37518817 0.18350406
000070 fc a7 8b 3e ba ae 5d 3f 9a ba ea 3e b3 e3 22 3e
       0.272766 0.86594737 0.4584549 0.15907173
000080 75 63 6a 3e b8 fb 8c 3d 07 56 93 3e d3 3d 08 3e
       0.22889502 0.06883949 0.2877657 0.13304834
000090 82 53 91 3d e3 a6 65 3e 0f e6 ed 3d 55 11 31 3f
       0.07096006 0.22426943 0.11616146 0.6916707
0000a0 6b 1e 92 3e 26 0d 95 3e 45 09 48 3d 14 4d 6f 3e
       0.28538832 0.29111594 0.048836965 0.23369247
0000b0 21 1d 1f 3f 4b c6 45 3e 5a 1f 86 3e 26 89 6b 3e
       0.6215382 0.19313924 0.26195794 0.23001537
0000c0 ee 40 0d 3f 36 80 e8 3e 7b b6 fc 3d 03 a6 c8 3e
       0.551772 0.45410317 0.12339493 0.39189157
0000d0 5a 06 d2 3e ac bb d0 3d 7e ee ee 3d db 0d 15 3e
       0.4102047 0.101920456 0.116665825 0.14556067
0000e0 26 b8 bb 3e 64 ed 4d 3e e0 10 68 3e bc 59 7e 3e
       0.36663932 0.20110089 0.22662687 0.24838918
0000f0 82 7d 49 3e 35 52 a9 3e d1 4c 22 3e 34 d6 f4 3e
       0.19676784 0.3307053 0.15849616 0.47819674
000100 f1 0f 73 3e 0b 24 23 3e 31 a3 ae 3e 5d dd f4 3d
       0.2373655 0.15931718 0.3410888 0.11956284
000110 81 a4 c8 3f a8 eb c2 3e 48 70 62 3e ef 67 9c 3e
       1.5675203 0.38070416 0.22113144 0.30548045
000120 21 97 dc 3e 41 24 05 3e ab 53 31 3e 25 de ad 3e
       0.43084052 0.13002111 0.17317073 0.33958545
000130 11 fe 19 3e b7 ad c0 3e 28 d0 eb 3e 56 4d 3c 3e
       0.15038325 0.37632534 0.46057248 0.18388876
000140 91 ae 83 3e 40 ca 31 3e cf c8 98 3e a6 dc e4 3d
       0.2571912 0.17362309 0.29840705 0.11174898
000150 92 8f 99 3e 2a de a8 3d e5 d1 78 3e 89 2f 9d 3e
       0.29992348 0.082454994 0.24298818 0.3070033
000160 5d b6 84 3e 16 13 b9 3e a2 7c 6a 3e 60 3e 77 3e
       0.25920382 0.36147374 0.22899106 0.24144888
000170 97 7a de 3d e2 59 5f 3e 88 7b 02 3f 31 82 1b 3e
       0.10863226 0.21811631 0.50969744 0.15186383
000180 37 7e a1 3e bc 2c b9 3e b5 c1 13 3f 4e 81 18 3e
       0.31541607 0.36166942 0.5771745 0.14893076
000190 08 48 6a 3e 1a df f9 3d bf 85 f0 3d 4b 61 95 3e
       0.2287904 0.12200756 0.1174426 0.2917579
0001a0 20 09 33 3e 3f 5b 44 3e ff ed 7f 3e b5 c4 4d 3e
       0.1748395 0.19175433 0.24993132 0.20094569
0001b0 a2 ea a9 3d 32 f0 16 3f 39 39 92 3e 7d 76 a0 3f
       0.08296706 0.5896026 0.28559282 1.253616
0001c0 2a 75 05 3f 5e 32 85 3e cf 25 1f 3e fe ac 0e 3e
       0.52131903 0.2601499 0.15541767 0.13933179
0001d0 fd de 7b 3e 40 3d 91 3e 53 35 82 3e 5a d0 13 3f
       0.24596782 0.28367043 0.25431308 0.57739794
0001e0 e1 b4 b4 3e 61 67 d8 3d 8a 7a 57 3f ab 39 86 3e
       0.3529425 0.10566593 0.84171355 0.26215872
0001f0 57 b9 d1 3e 3e d7 49 3e aa 41 7d 3e c0 4d fd 3d
       0.40961716 0.19711015 0.2473208 0.12368345
000200 91 88 a4 3e ce 1e 86 3e 59 51 27 3d 2b 9b 39 3f
       0.32135442 0.26195377 0.040849064 0.7250239
000210 7e fb 0d 3f 59 16 03 3f 2a 8a d1 3e a6 83 d0 3d
       0.5546187 0.51205975 0.40925723 0.1018136
000220 7e 1e 17 3f 23 67 c0 3e a6 ab e3 3e 6d b2 0d 3f
       0.590309 0.37578687 0.44466895 0.5535038
000230 00 b3 73 3e 51 ab a0 3e 03 a7 de 3d aa ba 22 3e
       0.23798752 0.31380704 0.10871699 0.15891519
000240 d3 45 fb 3d 28 76 5a 3e 06 a0 9c 3e 3f de 49 3e
       0.12269177 0.21334136 0.30590838 0.19713686
000250 9b a0 25 3e fb 3f 38 3e 66 7a e8 3e 08 dc 14 3f
       0.16174547 0.17993157 0.45405883 0.5814824
000260 b8 ac 8b 3e 7e fc 8e 3e 71 0f 1a 3e 53 a8 83 3e
       0.2728021 0.2792701 0.15044953 0.2571436
000270 ba c3 33 3e cd d3 95 3e 40 a9 5a 3f e0 db 11 3f
       0.17555133 0.29263154 0.85414505 0.5697613
000280 83 9a a3 3e 57 06 53 3e 48 2c 28 3e d1 64 f4 3d
       0.3195382 0.20607887 0.16423142 0.11933292
000290 35 25 b6 3e 0d 7a e8 3e 02 7c 3a 3e 3a bb 22 3f
       0.35575262 0.45405617 0.18211368 0.63566935
0002a0 26 54 c6 3d e3 7c fe 3d 8c a2 bf 3e a0 e6 5d 3e
       0.09684019 0.12426164 0.374287 0.21670008
0002b0 e8 74 d7 3d 25 9a 45 3f 61 55 57 3e e5 f3 ab 3e
       0.10520345 0.7718833 0.21028663 0.33584514
0002c0 ef 29 94 3e 3f 0d 39 3f de 98 b0 3e 79 21 66 3f
       0.28938243 0.72285837 0.34491628 0.89894825
0002d0 08 5f 45 3e c3 99 8e 3e 92 bb 25 3e a2 4f 01 3f
       0.19274533 0.27851686 0.16184834 0.50512135
0002e0 dd bf f2 3e 28 fd 28 3e b7 ea a7 3d 53 eb b7 3e
       0.47412005 0.16502821 0.08199065 0.35921726
0002f0 48 bc 6e 3e 76 b8 22 3e 57 60 69 3e 37 4e a6 3d
       0.23314011 0.15890679 0.22790657 0.08120387
000300 80 a0 d9 3e e1 98 d3 3e 7f a2 31 3e 99 18 32 3f
       0.42505264 0.41327575 0.17347144 0.69568783
000310 ba 0f d3 3d 9c 48 14 3f a3 d7 50 3e 18 82 1f 3e
       0.10305734 0.57923293 0.20394759 0.1557697
000320 e9 83 a1 3d e4 2f b2 3e c1 b0 f7 3d 4d c5 43 3e
       0.07886488 0.34802163 0.1209426 0.19118233
000330 59 ca 02 3f f8 50 01 3f ac ac 0e 3e f0 ad 9e 3e
       0.5109001 0.50514174 0.13933057 0.3099208
000340 53 e6 c5 3e 3e cb 52 3e e5 81 a7 3e f9 b8 ea 3d
       0.38652286 0.20585343 0.3271629 0.11461062
000350 60 b0 b4 3e c8 5d 10 3e fc a0 68 3f c0 29 48 3e
       0.35290813 0.14098275 0.9087064 0.19547176
000360 65 36 fe 3e ca ab d9 3e 68 38 e7 3e fb 9f 4f 3f
       0.49650875 0.42513877 0.45160222 0.81103486
000370 b0 1f 51 3d 86 5c 70 3e 14 ec ac 3e e4 fb 2b 3f
       0.05105561 0.23472795 0.33773863 0.6718123
000380 74 a9 54 3e 34 35 9c 3e 3a a9 55 3e 4f 4d 0d 3f
       0.20767766 0.3050934 0.20865336 0.5519609
000390 2a 32 96 3e e3 9a bc 3e 25 25 ff 3e c9 0b 42 3f
       0.29335147 0.3683692 0.49833027 0.7579923
0003a0 76 6b 42 3e 1b c1 be 3d 12 4d 16 3e 3b 03 c2 3e
       0.18986306 0.09314176 0.14677837 0.3789309
0003b0 89 8c 1c 3e 82 2b 85 3e 57 52 96 3e c8 04 1d 3e
       0.15287985 0.26009756 0.29359695 0.15333855
0003c0 96 f7 be 3e 57 68 85 3e 8a 30 e0 3e 41 48 5c 3e
       0.37298268 0.26056167 0.43787032 0.21511938
0003d0 5a 34 a1 3e 51 99 8d 3e 34 cb 15 3e bb f0 b3 3d
       0.31485254 0.27656034 0.14628297 0.0878615
0003e0 c6 c8 00 3f 9c bb 41 3e cb 85 5c 3e 7e 3c e4 3e
       0.50306356 0.18919224 0.21535413 0.44577402
0003f0 8f 4e 60 3e 84 e7 59 3e 15 ea e7 3d 61 a0 5d 3e
       0.21904968 0.21279722 0.113239445 0.21643211

bn1.running_var f4 [256]
000000 ea 86 0b 40 2b 37 09 3f b8 de 31 3e a1 69 34 3e
       2.1801095 0.53599805 0.17370117 0.17618419
000010 5a 0a ba 3d 77 0f 8d 3e be a1 87 3e d7 e6 ba 3e
       0.09084006 0.2755086 0.26490587 0.36504242
000020 ee 8b 25 3e 05 cf 59 3e 3c dc 20 3e 16 31 3d 3f
       0.1616666 0.21270378 0.15709013 0.73903024
000030 d1 82 1d 3e 89 d7 a0 3e c2 53 85 3e 5d 4b b6 3d
       0.15381934 0.3141444 0.26040465 0.08901093
000040 0e 2f 39 3e 66 4c bd 3e 92 6e 7d 3e e2 be 2f 3e
       0.18084356 0.3697235 0.2474921 0.1716266
000050 2b 65 d9 3e 19 c0 15 3e be 19 56 3e f4 22 34 3e
       0.42459998 0.1462406 0.20908257 0.17591459
000060 b7 76 9e 3e 16 2e e8 3e 31 13 29 3f 15 33 20 3e
       0.30949947 0.4534766 0.6604491 0.15644486
000070 ba 11 74 3e 74 26 1f 3f 40 e3 e6 3e c2 d2 1d 3e
       0.23834887 0.6216805 0.45095253 0.15412429
000080 57 8f 86 3e 8d 96 68 3d 9a 8e 69 3e 78 07 e8 3d
       0.26281235 0.0567842 0.22808304 0.113295496
000090 c6 05 99 3d 3f 47 40 3e 4a 9a 07 3e 32 bd 73 3f
       0.07471804 0.18777178 0.1324245 0.95210564
0000a0 82 34 94 3e 43 c6 9f 3e 40 5b 5c 3d 76 c2 7e 3e
       0.2894631 0.3120595 0.05379796 0.24878868
0000b0 a8 59 28 3f df 08 4d 3e ff c6 94 3e d0 40 73 3e
       0.65761805 0.20022915 0.29058072 0.23755193
0000c0 62 16 13 3f c7 1e 2b 3f 3f 0c 1a 3e 2e c0 fe 3e
       0.5745603 0.6684384 0.15043734 0.49755996
0000d0 8f b9 d8 3e 4e 6a db 3d b3 94 d5 3d 94 64 fa 3d
       0.4232907 0.107136354 0.10428753 0.12226215
0000e0 d7 e6 a6 3e 8b db 46 3e 9e 90 97 3e a9 e1 6d 3e
       0.32597992 0.19419686 0.29602522 0.23230614
0000f0 35 17 61 3e 50 78 ba 3e 09 59 42 3e 55 75 08 3f
       0.21981509 0.36419916 0.18979277 0.53304034
000100 8c 48 c2 3e fa 70 e6 3d 0f f5 d1 3e 6c f9 fb 3d
       0.37945974 0.11252017 0.41007277 0.12303433
000110 26 de 89 3f 56 56 ca 3e 7b 82 56 3e 73 c3 85 3e
       1.0770919 0.39518994 0.20948212 0.26125678
000120 ff 3e 07 3f b8 ea 5d 3e d4 23 35 3e 83 c3 c0 3e
       0.528305 0.2167157 0.17689449 0.37649164
000130 52 e7 f7 3d 0d e1 08 3f d5 ff c0 3e f8 52 18 3e
       0.12104668 0.534684 0.37695184 0.148754
000140 b4 a9 b1 3e 2f d0 95 3e d5 d4 c0 3e be e4 46 3e
       0.34699786 0.29260394 0.37662378 0.19423196
000150 1b f3 b8 3e 69 26 ca 3d 2b 26 a7 3e c3 47 89 3e
       0.36122975 0.098706074 0.32646307 0.26812562
000160 e8 1a 9a 3e 77 b1 b3 3e 01 55 79 3e d7 4d 45 3e
       0.30098653 0.35096332 0.24348833 0.19267975
000170 ed ab 32 3e ad 54 8f 3e 00 06 ba 3e ea 70 56 3e
       0.17448397 0.2799429 0.36332703 0.20941511
000180 70 ca af 3e 9c b0 b9 3e 03 7a 8f 3f 2e a1 30 3e
       0.34334135 0.36267555 1.120911 0.17248985
000190 d7 e0 5f 3e fb 7a 5b 3e 0d fb 42 3e 9c 31 ac 3e
       0.21863113 0.21433632 0.19041081 0.336316
0001a0 f2 20 38 3e 82 22 02 3e 9c 96 84 3e 96 83 2a 3e
       0.17981318 0.12708476 0.25896156 0.16651759
0001b0 68 43 b8 3d a2 22 24 3f 8a ce 7f 3e d6 a5 0c 40
       0.08997232 0.64115345 0.24981132 2.1976218
0001c0 d2 33 4f 3f 85 c3 a5 3e ea 18 18 3e 1a 06 43 3e
       0.80938447 0.32375732 0.14853254 0.19045296
0001d0 9d b1 38 3e 67 ef a6 3e e6 4d 66 3e e1 4a 16 3f
       0.18036504 0.32604524 0.22490653 0.58708006
0001e0 6d 27 2b 3f 10 c5 a0 3d 63 03 bf 3f 4f a3 b3 3e
       0.66857034 0.07850087 1.4922909 0.35085532
0001f0 ce e0 fa 3e 81 24 4b 3e 74 10 96 3e 65 c2 1c 3e
       0.48999637 0.19838144 0.29309428 0.1530853
000200 7b d7 ad 3e c0 3e cd 3e 31 36 24 3d 24 21 75 3f
       0.3395346 0.40086937 0.040090743 0.95753694
000210 06 0d 12 3f 2e 3c e3 3e 9e 5b e4 3e 01 5b 1f 3e
       0.5705112 0.4438185 0.44601148 0.15562059
000220 5c 0e 04 3f 45 cd b9 3e b4 ce be 3e 73 0c 20 3f
       0.5158441 0.3628942 0.37267077 0.62518996
000230 ba cc 65 3e 02 4f cb 3e 98 ac cc 3d 1d 64 2b 3e
       0.22441378 0.39708716 0.09993857 0.16737409
000240 a8 06 6a 3e b5 3e 7d 3e 1d 2e ef 3e 21 48 94 3e
       0.22854102 0.24730952 0.4671487 0.2896128
000250 b9 bb 75 3e be 69 b5 3e a1 af e1 3e b5 2f e3 3e
       0.23997392 0.35432237 0.44079307 0.44372335
000260 da 9e 8f 3e 1e ba 96 3e 1a 77 33 3e 86 16 b6 3e
       0.28050882 0.2943887 0.17525902 0.3556406
000270 d8 19 83 3e fc 62 95 3e 1c 35 4c 3f 93 05 1e 3f
       0.25605655 0.29177082 0.7976854 0.61727256
000280 33 fb ce 3e 74 58 f2 3e 3f 9f 37 3e 7c fb 13 3e
       0.40426025 0.4733311 0.17931841 0.14451402
000290 11 58 b9 3e a1 4d 5d 3e 55 c2 52 3e 91 23 39 3f
       0.36200002 0.21611644 0.20581944 0.72319895
0002a0 a4 65 d4 3d d6 8d 1a 3e 54 f0 aa 3e 0d 14 9b 3e
       0.10370949 0.15093169 0.3338648 0.30288735
0002b0 6d b1 2f 3e 95 97 47 3f ef 3b 59 3e 78 d2 ea 3e
       0.17157526 0.7796567 0.21214269 0.458637
0002c0 ea 74 c7 3e fb 9f 59 3f 8c e4 b7 3e 49 03 52 3f
       0.38956386 0.85009736 0.35916555 0.8203626
0002d0 71 07 2a 3e 19 6d 87 3e 94 1c 13 3e 7a d3 30 3f
       0.16604401 0.26450422 0.1436637 0.6907269
0002e0 a0 af d4 3e 47 02 6e 3e 9e cf b9 3d 8f 47 02 3f
       0.4154024 0.23243056 0.09072803 0.5089044
0002f0 69 11 63 3e fe f0 38 3e 1c 08 a2 3e 0e c6 f2 3d
       0.2217461 0.18060681 0.31646812 0.11854182
000300 ef 09 fc 3e b6 1e 40 3f aa de 68 3e 06 5c ba 3f
       0.4922633 0.7504686 0.2274119 1.4559333
000310 c8 87 e5 3d 66 39 3f 3f 99 e5 4a 3e 8d 29 42 3e
       0.11207539 0.7469696 0.19814147 0.18961163
000320 66 77 dc 3d ba 0e a7 3e 99 37 ca 3d 9a 6b 25 3e
       0.10764961 0.32628423 0.09873886 0.16154328
000330 0f 57 4d 3f 8a ca dc 3e f8 5d 59 3e a1 a2 e5 3e
       0.80210966 0.43123275 0.21227252 0.44850639
000340 dc ce 07 3f 10 db 4b 3e 80 51 98 3e d2 45 15 3e
       0.5305002 0.19907784 0.2974968 0.14577416
000350 4e 3a e5 3e 86 26 04 3e 9f cf 82 3f f7 18 2d 3e
       0.44771045 0.1290532 1.0219611 0.16904055
000360 50 26 3c 3f a5 77 fc 3e 80 00 e0 3e 56 1d 59 3f
       0.7349596 0.49310032 0.4375038 0.8481039
000370 03 d9 3d 3d 7f 9d af 3e 71 a8 b5 3e 78 a1 17 3f
       0.046349537 0.34299847 0.35480073 0.59230757
000380 f8 87 3c 3e 06 ca 1b 3f ea 3c 0f 3e b3 6a 32 3f
       0.18411243 0.6085514 0.1398808 0.6969406
000390 12 a3 92 3e 2c 62 1e 3f fa fa 2e 3f 1a de 68 3f
       0.28640038 0.6186855 0.6835171 0.909639
0003a0 e1 12 62 3e 22 1d c7 3d 34 94 01 3e c0 4f 91 3e
       0.22077514 0.097223535 0.12654191 0.28381157
0003b0 1e 61 10 3e 2f 6c 7a 3e 48 18 cd 3e 8f f2 42 3e
       0.14099547 0.24455331 0.40057588 0.19037841
0003c0 37 68 de 3e bc 27 a3 3e c7 e4 c3 3e 38 c0 a0 3e
       0.43438885 0.31866252 0.3826048 0.3139665
0003d0 79 16 c9 3e c6 16 b6 3e 32 51 34 3e 6b 11 8c 3d
       0.39274958 0.3556425 0.17609099 0.0683926
0003e0 3a 1c 2a 3f 2f 16 cf 3e 18 eb 65 3e a8 4d fe 3e
       0.6644932 0.40446612 0.22452962 0.49668622
0003f0 5c 92 74 3e 47 b0 43 3e 92 11 f8 3d 4d 43 8d 3e
       0.23883957 0.19110213 0.12112726 0.2759041

fc2.weight f4 [128, 260]
000000 a9 e3 df be 8c 96 1d be 05 97 83 be f1 93 10 3e
       -0.43728378 -0.1538946 -0.25701156 0.14118935
000010 73 13 e7 be 38 88 10 be de 23 9f 3d 8c 24 7a 3e
       -0.45132026 -0.14114463 0.07770513 0.24428004
000020 6b d5 13 3e 69 a1 33 be bd af b2 be 92 db ba be
       0.14436881 -0.17542042 -0.34899703 -0.36495644
000030 40 d8 83 3c c1 3d e2 be 6d 35 6f 3d dc fa aa be
       0.016094327 -0.4418774 0.05840056 -0.33394516
000040 9a 4f ca bd 8b 9f 58 be 9e cc 47 3e 00 26 94 bd
       -0.09878464 -0.21154611 0.19511649 -0.072338104
000050 c4 f2 d0 bd 4f 3c f6 bd 08 7a c9 3c 7c 06 0a 3c
       -0.10202554 -0.12023222 0.024594322 0.008424398
000060 de 45 c7 3b 1e 15 8f be 94 c5 1a bf 45 99 76 be
       0.006081327 -0.279458 -0.6045773 -0.24081905
000070 c7 a2 12 be ef 58 00 bf a9 5f f9 3d 93 69 4e bd
       -0.14319907 -0.501357 0.12176449 -0.050393652
000080 ce 78 d5 bb 22 ed 24 be 0c ee a6 be 8c 67 82 3e
       -0.006514645 -0.16106084 -0.3260349 0.25469625
000090 96 bc 71 3e ab 62 9b 3e 83 f1 86 3d 85 5c 31 be
       0.23607096 0.30348715 0.065890335 -0.1732045
0000a0 4f 8b 5e bc 45 65 fe 3d fa 5a 01 bf 45 bf 00 bf
       -0.013583018 0.124216594 -0.50529444 -0.50291854
0000b0 3a 8a 9b bd 06 01 c0 3a d6 8b 86 be a1 14 8b 3e
       -0.07594724 0.0014648743 -0.2627856 0.27164176
0000c0 af 16 4f be 74 1d 18 bf 7a bb 8c 3e 6b 3f 1e be
       -0.20223497 -0.5941994 0.27486783 -0.1545388
0000d0 96 10 35 bd 55 8f a5 3d 1b da 5a 3d e7 27 92 be
       -0.04420527 0.08083979 0.053430658 -0.28546068
0000e0 94 c5 1b 3e f2 98 45 be 33 5d cb bd 7e d4 2f be
       0.15212089 -0.19296625 -0.09929886 -0.17170903
0000f0 1c 42 30 bf e8 d9 a3 bd 61 40 4f be 4c 31 0d 3e
       -0.68850875 -0.08000547 -0.20239402 0.13788337
000100 a5 05 8d be 63 e7 35 bf 5e b5 74 3d 3d a3 1a be
       -0.2754337 -0.71056193 0.059743278 -0.15101333
000110 a1 9e c2 bc 9d 58 c1 3b e7 18 68 bd 6e 6e 7e bd
       -0.02375728 0.005900456 -0.056664374 -0.062117033
000120 81 34 9c be e3 db b5 3d fa 11 17 3e 75 de 79 bd
       -0.30508807 0.08879831 0.14752951 -0.061003167
000130 0d b6 7e be ce 10 20 3e df 1b 27 be 10 8c 44 3d
       -0.24874134 0.1563141 -0.16319226 0.047985137
000140 91 64 bf 3d 91 52 d0 bc a1 6f 80 3c 32 43 48 bf
       0.093453534 -0.025429996 0.015678229 -0.7822753
000150 bd 80 ee ba 0f 07 f5 be c6 3e 05 3d 76 b3 00 bd
       -0.0018196326 -0.47856948 0.03253057 -0.031421147
000160 c2 f2 3e 3e 3f 3e 6e 3c 63 ce 22 3d 8e 0b db be
       0.18647292 0.014541208 0.039747607 -0.42782253
000170 1f ed b0 be ac ab 90 be 99 83 3b be 09 49 fb bc
       -0.3455591 -0.28255975 -0.1831192 -0.030674474
000180 4a 60 4a bd 21 84 4f 3e 1c 82 14 be bd 06 28 be
       -0.049408235 0.20265247 -0.14502758 -0.1640882
000190 d4 fc 30 3d 97 6b 2a be 28 ff 00 be d6 ea 19 be
       0.043209866 -0.16642605 -0.12597334 -0.15030989
0001a0 4c c3 c1 bd 59 c2 fb bd 06 b0 34 be d8 34 49 bd
       -0.09461078 -0.12292928 -0.17645273 -0.04912266
0001b0 df 05 a3 3b 24 74 89 bd bf 7f 80 be d1 17 75 be
       0.004975065 -0.06711605 -0.25097463 -0.23934866
0001c0 38 0c 48 be 9e 01 30 be c3 a3 81 be 50 7f 79 be
       -0.19535911 -0.17188117 -0.25320253 -0.24364972
0001d0 e0 1d f0 bd 49 c4 cb be 8e 6d b4 3d 8c 69 39 3e
       -0.11724448 -0.3979819 0.088099584 0.18106669
0001e0 e5 a6 b9 3e 07 e6 40 bf b6 1d 5a be db 4e 17 3e
       0.36260143 -0.75350994 -0.21300396 0.14776175
0001f0 5f 2b 00 bf 5d 9a 95 3e 90 b5 8d 3b 61 1a 65 bd
       -0.5006618 0.29219332 0.0043246225 -0.05593336
000200 4c cf 04 be a9 b1 a5 3c 9a e2 a5 be 13 55 47 3e
       -0.12969702 0.020226317 -0.32399446 0.19466047
000210 d7 29 2f 3d e6 d1 db bd d5 69 d1 3c ab d2 64 be
       0.04276451 -0.10733394 0.02556316 -0.22345988
000220 03 69 03 bd be 94 ca be da 9c 04 3e 21 53 33 be
       -0.03208257 -0.39566606 0.12950459 -0.1751218
000230 e7 5f 09 bf 26 62 7f be e4 e1 80 bd 9b 69 b3 be
       -0.5366196 -0.24939784 -0.06293085 -0.35041508
000240 f9 66 90 bd 79 6b 9a 3d 4b 3c 39 3e 18 cd bd be
       -0.070508905 0.0754003 0.18089406 -0.37070537
000250 b9 24 c9 bd 1b bc 2d 3e fe 25 37 3d fa e2 ad be
       -0.098214574 0.16966288 0.044713967 -0.33962232
000260 be b8 37 3d dd 8e d4 be d0 cc d7 be 81 81 bb bc
       0.04485392 -0.41515246 -0.42148447 -0.0228889
000270 60 42 41 3e 1f 61 1d bf 8b 5c f5 bd 68 0c bd bd
       0.18872976 -0.6147632 -0.11980542 -0.09230882
000280 09 b8 9a be f6 88 aa bd 56 0c 79 3e 7b 16 69 bd
       -0.30218533 -0.083269045 0.24321112 -0.056906205
000290 1d 44 27 3e 19 a3 f6 be ea de 4c bf b4 19 7b be
       0.16334577 -0.4817131 -0.8002764 -0.24521524
0002a0 a5 bb b5 be c9 1e 7a bb 5a e0 0d be 31 a3 ee bd
       -0.35494724 -0.0038165322 -0.13855115 -0.1165222
0002b0 05 b6 0b bf d0 5b ed be ad 29 27 be d8 40 c3 be
       -0.54574615 -0.4635911 -0.16324492 -0.3813541
0002c0 1f f1 80 be e8 fd aa 3d da d8 1c be 48 a8 ae bd
       -0.2518396 0.0834921 -0.15317097 -0.08528191
0002d0 a3 5f 62 3e b9 62 76 be 9a 11 44 bf f6 10 fd 3d
       0.22106795 -0.24061097 -0.7658936 0.12356751
0002e0 c6 fa 99 be 56 23 91 be 1f c5 dc 3d db 57 5d 3d
       -0.30074137 -0.28347272 0.10779785 0.054038864
0002f0 48 7c 5e be 2f 5e 24 bf 03 46 9b bd 41 4d 67 3d
       -0.21727097 -0.6420621 -0.07581713 0.05647016
000300 79 fa 18 be 3e 14 bf 3e 72 ee 80 be 85 44 ff 3c
       -0.14939298 0.3732013 -0.2518192 0.031160602
000310 93 53 3f be 60 04 1a 3e 56 87 cd 3d a8 38 19 3e
       -0.18684225 0.15040731 0.10035579 0.14963019
000320 2a 0a 88 bd 13 f5 0a 3d 60 64 64 be 2c 0b 00 3e
       -0.06642564 0.033925127 -0.22303915 0.12504262
000330 f3 d0 ff be a6 a1 12 bd 81 93 79 be d1 64 c6 3e
       -0.49964103 -0.03579869 -0.24372675 0.38748792
000340 7c f8 f3 be c4 40 d4 bd d3 6c 0e bf 86 f5 ac 3d
       -0.47650516 -0.103639156 -0.556348 0.084452674
000350 23 c3 0b bf c9 2d af be e5 eb d4 be 4e 26 9b bd
       -0.5459463 -0.3421462 -0.41586223 -0.075756654
000360 a6 f5 9f 3d 9c dd d0 3d db f3 5f 3e 19 89 e7 bd
       0.078105256 0.10198519 0.21870367 -0.11305446
000370 f5 84 1c be 82 c3 bc 3d cd a3 f8 3b d3 bc ef bd
       -0.15285094 0.09216978 0.007587886 -0.11705937
000380 f5 5e 29 3e d5 0a f3 3d a3 34 35 3e 1a 33 a4 be
       0.1654013 0.118673004 0.1769586 -0.32070237
000390 cf f9 6d be 3f cf cd 3d c3 9e 0e bf a8 9a 85 bd
       -0.23239826 0.10049295 -0.55711 -0.06523639
0003a0 4a 4f 5f 3e 8b 16 77 3d 04 ca 65 be 49 6a 50 3c
       0.2180759 0.060324233 -0.22440344 0.012720653
0003b0 e2 8e 82 bc 57 83 16 3e bf d1 d2 bd aa c7 6e be
       -0.015937272 0.1469854 -0.10293912 -0.23318353
0003c0 25 89 da 3c 4a 0c 29 be 05 82 6e 3e 21 00 64 3d
       0.026676724 -0.16508594 0.23291786 0.055664185
0003d0 eb ca cb bd 15 2e bc 3d f5 a1 35 be f5 9e fe be
       -0.09950813 0.09188477 -0.17737563 -0.4973065
0003e0 aa 29 8c be 5a 03 e8 bd c7 52 3c bd 1f d3 66 3c
       -0.27375537 -0.11328764 -0.04597738 0.014088421
0003f0 f6 9e 07 bf a4 14 b7 3c 99 8c 68 bf d3 70 ab 3d
       -0.5297693 0.02234871 -0.90839535 0.08371129
