cpt_actor.pth (torch, 178933 bytes, 14 tensors)

fc1.weight f4 [256, 33]
0	0x3c7a890a	0.015291462
1	0x3d5281ba	0.05139325
2	0xbe41990e	-0.18906042
3	0x3e4fbbce	0.20286486
4	0x3d957b61	0.07298923
5	0x3f44192f	0.7660093
6	0xbe925286	-0.28578585
7	0xbe084b11	-0.13309886
8	0x3e91855b	0.28422055
9	0xbeb3b6af	-0.35100314
10	0x3cd761e8	0.026291803
11	0xbcbcd070	-0.02304861
12	0x3cf64d4f	0.03006616
13	0xbd9ceb27	-0.07662039
14	0x3d3216ba	0.043478705
15	0xba1ae6df	-0.0005909036
16	0xbefe9e51	-0.4973016
17	0xbe8d50e6	-0.27600783
18	0x3e285056	0.16436896
19	0xbeba4155	-0.3637797
20	0xba17b0b3	-0.0005786523
21	0xbd6318ed	-0.055443693
22	0x3d1c2193	0.038117956
23	0x3b594678	0.0033153575
24	0x3d2b3cc4	0.041805997
25	0x3d2aef62	0.0417322
26	0x3d565b07	0.052332904
27	0x3e81b76a	0.25335246
28	0x3e83143c	0.25601375
29	0x3d3a1f70	0.045440137
30	0xbe903f2b	-0.28173193
31	0xbd5fd822	-0.05464948
32	0x3f8f0926	1.1174667
33	0x3d961b48	0.07329422
34	0x3c79e846	0.015253132
35	0xbec7797f	-0.38959882
36	0x3d9f43c8	0.077766
37	0x3e36384f	0.17794918
38	0xbe2d2899	-0.16910018
39	0xbdc92eec	-0.09823403
40	0x3cdc12aa	0.026864368
41	0xbe934bd3	-0.28768787
42	0xbdd55393	-0.10416331
43	0x3d0d7021	0.034530763
44	0x3d69ed10	0.057110846
45	0xbc6a3ba8	-0.01429645
46	0x3d21afa7	0.039474156
47	0x3e67111a	0.22565117
48	0xbde622f2	-0.11237134
49	0x3f37e55c	0.7183435
50	0x3ed19b04	0.4093858
51	0xbebbebf2	-0.3670345
52	0xbef58f6d	-0.47960988
53	0xbcee69b8	-0.029103145
54	0x3dba72e5	0.09103946
55	0xbbcad399	-0.006189775
56	0x3d3cdabe	0.046107046
57	0x3d6dd11d	0.058060754
58	0x3d454569	0.048161898
59	0xbda932a3	-0.08261611
60	0xbd10b9aa	-0.035333313
61	0x3e68a2c4	0.2271834
62	0xbc3ec628	-0.011643924
63	0xbbdd09e1	-0.0067455624
64	0x3d322716	0.043494307
65	0x3f5a3209	0.852326
66	0x3cb45955	0.022015253
67	0x3e190eeb	0.14947097
68	0xbe88727b	-0.26649842
69	0xbdd2ff83	-0.10302641
70	0x3eaa34b0	0.33243322
71	0xbefcf17e	-0.49402994
72	0xbe703817	-0.23458897
73	0xbd9ba148	-0.07599121
74	0x3e1e2214	0.15442687
75	0xbdc4f6de	-0.09617399
76	0xbda0268b	-0.078198515
77	0x3d5a71e3	0.053331267
78	0xbd1eb2e7	-0.038744833
79	0xbbc72f54	-0.00607864
80	0x3e24bd61	0.16087867
81	0xbe6d1c0d	-0.23155232
82	0xbd976012	-0.07391371
83	0xbf5fc5ff	-0.87411493
84	0x3d87841e	0.06616996
85	0xbf2424ff	-0.6411895
86	0xbd2c8c0b	-0.042125743
87	0xbd224d65	-0.03962459
88	0x3dd37370	0.10324752
89	0xbe27dec1	-0.16393568
90	0x3c86778a	0.016414423
91	0xbc8a839d	-0.016908461
92	0x3e70fcfc	0.23534006
93	0x3d1af962	0.037835486
94	0x3dffed98	0.12496489
95	0x3c680bb8	0.01416295
96	0xbcf1455e	-0.029452022
97	0x3d7d1bd4	0.061794117
98	0xbe8639f9	-0.26216105
99	0xbe34f51a	-0.17671624
100	0x3ec70725	0.38872638
101	0xbd2e8552	-0.042607613
102	0x3e58b97a	0.21164504
103	0xbe42da2e	-0.19028541
104	0x3efc2124	0.49244034
105	0x3e06b29a	0.13154069
106	0x3e248850	0.16067624
107	0x3ebe13fd	0.37124625
108	0x3df7df8d	0.12103186
109	0xbd8346c3	-0.06409981
110	0x3d207a3c	0.03917907
111	0xbe4b29fe	-0.19840237
112	0x3d4a5ce2	0.049404986
113	0xbd18eba9	-0.037334118
114	0xbd314e9b	-0.043287855
115	0x3f4ab615	0.79184085
116	0xbec0ca3b	-0.3765429
117	0x3e9feb03	0.31233987
118	0x3ef71fb9	0.4826639
119	0x3dee3eaf	0.1163305
120	0x3d8cb19d	0.068698145
121	0xbe5d45a5	-0.21608599
122	0x3d3bd8e6	0.045861147
123	0x3e0bab3c	0.1363954
124	0xbe4f8ea1	-0.20269252
125	0xbe6007f7	-0.21878038
126	0x3e22eb69	0.15910114
127	0xbdad490a	-0.08461197
128	0xbd22f57a	-0.039784886
129	0xbe1bbb37	-0.15208136
130	0x3d579f88	0.052642375
131	0x3cec807a	0.028869856
132	0xbe17d648	-0.14827836
133	0x3e393a16	0.18088564
134	0x3e25f717	0.16207539
135	0x3cadf50a	0.021235008
136	0x3fa2798a	1.2693341
137	0xbdd1292b	-0.1021293
138	0x3f10296c	0.56313205
139	0x3e495c99	0.1966423
140	0xbec84dd6	-0.39121884
141	0x3db28be1	0.08718086
142	0xbd8cb116	-0.06869714
143	0xbc8e6894	-0.017383851
144	0x3d47ee39	0.04881117
145	0xbdd32b6c	-0.103110164
146	0xbe70ab89	-0.23502935
147	0xbad07cc7	-0.0015906327
148	0x3e430523	0.19044928
149	0xbf7ca642	-0.9869119
150	0xbf069d96	-0.5258421
151	0xbe817e4b	-0.25291666
152	0xbc816ae7	-0.015798045
153	0x3d737a98	0.059443086
154	0x3d2dde1b	0.042448144
155	0xbccb981c	-0.024852805
156	0xbdf6a505	-0.12043194
157	0x3cdbfb46	0.026853215
158	0x3da93879	0.082627244
159	0x3e4d64e2	0.20058015
160	0xbde605ed	-0.11231599
161	0x3cd5d6b0	0.026103348
162	0xbe1dc9f8	-0.15409076
163	0x3ccc2f64	0.024924941
164	0x3e28891e	0.16458556
165	0x3c300685	0.010743742
166	0x3e192783	0.14956479
167	0xbe2443e5	-0.16041525
168	0x3d1a637e	0.03769254
169	0xbf4f5e60	-0.8100338
170	0x3f27e92f	0.65590185
171	0x3e3cc75a	0.18435422
172	0x3e351b9a	0.1768631
173	0xbd80766f	-0.062725894
174	0xbdee7f46	-0.11645369
175	0x3c889bff	0.016675947
176	0x3d01f151	0.031724278
177	0xbe2687ca	-0.16262737
178	0xbdd3e0cc	-0.10345611
179	0x3e385092	0.17999485
180	0x3d171388	0.03688386
181	0xbb9a83bf	-0.0047154124
182	0xbf3e2863	-0.74280375
183	0x3d36d947	0.044640806
184	0xbe9cc9a1	-0.3062258
185	0x3d1e6dba	0.038678862
186	0xbbe35e54	-0.006938735
187	0xbcb56023	-0.022140568
188	0x3d798a03	0.060922634
189	0xbd129685	-0.035788078
190	0x3c9cfa2c	0.01916226
191	0x3ec6d03b	0.38830742
192	0x3e6ea115	0.23303635
193	0xba6c8b83	-0.00090234744
194	0xbc3d26c0	-0.011544883
195	0xbe574c4f	-0.21025203
196	0xbce1fde4	-0.027586885
197	0xbea53d52	-0.32273346
198	0xbcf6b159	-0.030113863
199	0xbc3886b8	-0.011262588
200	0x3d6c0ae3	0.05762757
201	0x3d8c8fb4	0.06863347
202	0x3f9749d5	1.1819407
203	0x3ec548fe	0.3853225
204	0x3e658666	0.2241455
205	0x3cbc520f	0.022988347
206	0x3d0ca835	0.034340102
207	0xbd9df704	-0.0771313
208	0x3ddd32d3	0.108007096
209	0x3cd3cf97	0.025855822
210	0x3cfc85dd	0.03082555
211	0x3d89f785	0.06736664
212	0x3e10e3ca	0.14149395
213	0xbcd691e9	-0.026192622
214	0x3f03a381	0.5142136
215	0xbeb4c672	-0.35307652
216	0xbe0d29de	-0.13785502
217	0x3f37399d	0.71572286
218	0xbadda3f7	-0.0016909827
219	0x3d078b58	0.033091873
220	0xbe12137a	-0.14265242
221	0xbd15ac72	-0.03654141
222	0x3dec3867	0.115341954
223	0x3c1b907a	0.009494895
224	0x3dbf5c2d	0.09343753
225	0x3ea64f63	0.32482442
226	0x3d711fe4	0.058868304
227	0xbaaeb0c0	-0.0013327822
228	0xbe8c678d	-0.27422753
229	0x3cbd9654	0.023142971
230	0x3f820c63	1.016003
231	0xbe4ce5e4	-0.20009571
232	0x3e95251f	0.29129884
233	0x3bba1685	0.005678954
234	0xbf0ba671	-0.54550844
235	0x3e057fbe	0.13037011
236	0x3f123057	0.5710501
237	0xbe8551ac	-0.26038873
238	0xbe07aee9	-0.13250317
239	0xbdbb514e	-0.09146367
240	0xbdeac1a3	-0.114627145
241	0xbda86edf	-0.08224272
242	0x3d5fb22a	0.05461327
243	0x3c3e1704	0.011602167
244	0xbe40038c	-0.18751353
245	0xbe57970a	-0.2105371
246	0x3d7b93a9	0.061420117
247	0x3ea5ea51	0.32405332
248	0x3ef6d1ef	0.48207042
249	0xbdd21121	-0.10257173
250	0x3baf54fd	0.0053507076
251	0x3d269d7c	0.040677533
252	0xbd1ed861	-0.038780574
253	0x3ca558fb	0.02018403
254	0xbe99283a	-0.29913503
255	0xbcedef73	-0.029044842

fc1.bias f4 [256]
0	0xbe8d8199	-0.27637938
1	0x3dfe46ed	0.12415872
2	0x3c5c4b60	0.013445705
3	0xbe852159	-0.26002005
4	0xbe86895f	-0.2627668
5	0xbe21680f	-0.15762351
6	0xbe83ae27	-0.25718805
7	0xbe67dfc7	-0.22643958
8	0xbed78c61	-0.42099288
9	0xbdfdd2ce	-0.123937234
10	0xbe569ac1	-0.20957471
11	0xbec6960a	-0.38786346
12	0xbe5c7794	-0.2152999
13	0xbe702d4f	-0.23454784
14	0x3cad9d29	0.021193104
15	0xbe869831	-0.26287988
16	0x3e295423	0.16536002
17	0xbd9fd73a	-0.07804723
18	0x3e82384c	0.25433576
19	0x3cfc44f5	0.0307946
20	0xbd717906	-0.058953308
21	0xbe7d0d5b	-0.24712126
22	0xbe2c2d60	-0.16814184
23	0xbe553ae9	-0.20823254
24	0xbec507b0	-0.38482428
25	0xbed0188e	-0.40643734
26	0xbf14e951	-0.5816851
27	0x3c95e476	0.018297415
28	0x3d4591e8	0.04823485
29	0x3e29d3c3	0.16584687
30	0xbe36f46d	-0.17866679
31	0xbe24a2a4	-0.16077667
32	0xbe83c072	-0.25732762
33	0xbee46a87	-0.44612524
34	0xbdf0892e	-0.11744915
35	0xbeb9aca6	-0.36264533
36	0xbc7883de	-0.015168158
37	0xbd6d38a9	-0.057915363
38	0xbecff86e	-0.40619224
39	0x3d5bba98	0.053644747
40	0xbc641122	-0.0139201
41	0xbde32603	-0.110912345
42	0xbeba440d	-0.36380044
43	0xbdf4ed0e	-0.11959277
44	0xbeae0836	-0.3399064
45	0xbe9b8663	-0.30375966
46	0xbddd159f	-0.107951395
47	0x3d90d254	0.07071367
48	0xbe0900b8	-0.1337918
49	0xbdc60ac4	-0.09670022
50	0xbe9e4b25	-0.30916706
51	0xbe22376e	-0.15841457
52	0xbe9c08cc	-0.3047546
53	0xbe552a4e	-0.20816919
54	0xbedefff9	-0.43554667
55	0xbe162452	-0.14662293
56	0xbe8761f3	-0.26441917
57	0xbe46e192	-0.19421986
58	0xbe11f483	-0.1425343
59	0xbe9f6042	-0.31128126
60	0x3de10e08	0.109890044
61	0xbdbedcd8	-0.09319466
62	0xbe3c95e4	-0.18416554
63	0xbd926337	-0.0714783
64	0xbee4f7e1	-0.44720367
65	0xbd5ab302	-0.05339337
66	0x3cfb0793	0.03064326
67	0xbe3a69f2	-0.18204477
68	0xbda211a9	-0.07913525
69	0xbe7b5086	-0.24542436
70	0xbe22ee52	-0.15911224
71	0x3d863428	0.06552917
72	0xbe7eca54	-0.2488187
73	0xbdf3c9ca	-0.119037226
74	0xbeda7c14	-0.4267279
75	0xbdc92f9e	-0.098235354
76	0xbe955a50	-0.29170465
77	0xbe54509c	-0.20733875
78	0xbe683f3d	-0.22680373
79	0xbd2f533b	-0.042803984
80	0xbe61dcbb	-0.22056858
81	0xbe08c99d	-0.1335816
82	0xbe9e0142	-0.30860335
83	0xbe6609b4	-0.22464639
84	0xbe746f3f	-0.23870562
85	0xbdbdcc02	-0.09267427
86	0xbeb55d27	-0.35422632
87	0xbe9292b8	-0.28627563
88	0xbf16ed27	-0.58955616
89	0xbe55135f	-0.2080817
90	0x3c7d813d	0.015472707
91	0x3d837a02	0.064197555
92	0xbeb49038	-0.3526628
93	0xbe8d0354	-0.27541602
94	0xbda05f3d	-0.07830665
95	0xbe06dc99	-0.13170089
96	0xbe264e8c	-0.16240901
97	0xbee8f88c	-0.45502126
98	0x3e180bff	0.14848326
99	0xbe0a3dbd	-0.13500114
100	0xbeac18dc	-0.33612716
101	0x3d960cb0	0.07326639
102	0xbe65ba15	-0.22434266
103	0xbde1207c	-0.10992524
104	0xbea89687	-0.32927343
105	0xbeb88c1b	-0.36044392
106	0xbe6c339b	-0.23066561
107	0xbe178ae4	-0.14799076
108	0xbe402110	-0.18762612
109	0xbe86f1bb	-0.263563
110	0xbf02bee9	-0.51072556
111	0xbeb0308b	-0.34412035
112	0xbe9cfd8e	-0.30662197
113	0xbe9a415a	-0.30127984
114	0xbeaa042f	-0.33206317
115	0xbdff0ec7	-0.124539904
116	0xbee6e6d0	-0.4509797
117	0xbd846e68	-0.06466371
118	0xbeef6b66	-0.46761626
119	0xbf0f5dcf	-0.56002516
120	0xbdadfda0	-0.08495641
121	0xbd9c9944	-0.076464206
122	0xbed97b13	-0.4247671
123	0xbea9d3f0	-0.33169508
124	0xbe9c4254	-0.30519354
125	0xbea7b058	-0.32751727
126	0xbe8f2bef	-0.27963206
127	0xbe080b4b	-0.13285558
128	0xbd886278	-0.066594064
129	0x3d068a2a	0.032846607
130	0xbec7a14b	-0.38990244
131	0xbe654918	-0.22391164
132	0xbe6ed32d	-0.23322745
133	0x3dcc0871	0.099625476
134	0xbe752f43	-0.2394381
135	0xbe1c3ec0	-0.15258312
136	0xbe1f1240	-0.15534306
137	0xbe1d4069	-0.15356602
138	0xbd50f601	-0.051015858
139	0xbe5c5c21	-0.2151952
140	0xbe960327	-0.2929928
141	0xbcacb632	-0.021082971
142	0xbed00cfb	-0.40634903
143	0xbee8e906	-0.45490283
144	0xbe974c89	-0.2955058
145	0xbde24b8a	-0.11049564
146	0x3cab2644	0.02089227
147	0xbe346b33	-0.17619018
148	0xbe4b430b	-0.19849794
149	0xbe32c61b	-0.17458384
150	0xbf245aa1	-0.6420079
151	0xbde29498	-0.11063498
152	0xbe8609d0	-0.2617936
153	0xbda3f844	-0.08006337
154	0x3c6dd57d	0.014516232
155	0x3dd0a3a3	0.10187461
156	0xbdf8e792	-0.121535435
157	0x3dce9491	0.100869305
158	0xbe57aab5	-0.21061213
159	0xbebc6d63	-0.36802205
160	0xbe91bfc7	-0.28466627
161	0xbe3d2bc5	-0.18473728
162	0xbe67902f	-0.22613595
163	0xbeb323e8	-0.34988332
164	0xbf0addba	-0.5424458
165	0xbd6453bd	-0.05574392
166	0xbe1178e2	-0.1420627
167	0xbf02fe6b	-0.5116946
168	0xbe8b5dcf	-0.27220008
169	0x3e452258	0.19251382
170	0xbe18a3de	-0.1490626
171	0xbeb2cb67	-0.3492081
172	0xbd8aab0a	-0.06770904
173	0xbe8b270e	-0.27178234
174	0xbec88166	-0.39161223
175	0xbe8ceb2d	-0.27523175
176	0xbea63f0b	-0.32469973
177	0x3d1c206a	0.03811685
178	0xbe994c3c	-0.29940975
179	0xbeb3cb3c	-0.35115993
180	0x3dd1d2ee	0.1024531
181	0xbe138895	-0.1440757
182	0xbe868581	-0.2627373
183	0xbed3ecbb	-0.4139155
184	0xbe7696b8	-0.24080932
185	0xbe82e9ad	-0.25568905
186	0x3e0ac708	0.13552487
187	0xbe98d99b	-0.2985352
188	0xbe4022a9	-0.18763222
189	0xbea6f057	-0.3260524
190	0xbe1c5aea	-0.15269056
191	0xb9191638	-0.00014599494
192	0xbd71b9a4	-0.05901493
193	0xbeb17ea1	-0.34666923
194	0x3db28fd8	0.08718842
195	0xbd7d6625	-0.06186499
196	0xbe8a6b41	-0.27034953
197	0xbddf3294	-0.10898319
198	0xbe42e669	-0.19033207
199	0xbe89cc91	-0.26913884
200	0x3d47d00b	0.04878239
201	0xbec3e69e	-0.38261884
202	0xbec2bc37	-0.38034222
203	0xbe3678bf	-0.17819498
204	0xbbc1ddb4	-0.0059163217
205	0xbc4855d7	-0.012227497
206	0xbd990bcd	-0.07472954
207	0xbf140d3f	-0.5783271
208	0xbdf6ae32	-0.12044944
209	0xbdd2e1ee	-0.10296999
210	0xbe5ee229	-0.21765961
211	0xbf04a43b	-0.51813096
212	0x3e1dd8ee	0.15414783
213	0x3bf9f39b	0.007627917
214	0xbdfee4fd	-0.1244602
215	0xbe83c251	-0.2573419
216	0xbd8093bc	-0.06278178
217	0xbf099a44	-0.53751016
218	0xbe79a048	-0.24377549
219	0xbec5be95	-0.38621965
220	0xbed8e33b	-0.42360863
221	0xbe31018e	-0.1728575
222	0xbec176d9	-0.37785986
223	0x3de92956	0.11384837
224	0xbed53e6d	-0.4164919
225	0xbe9fb079	-0.31189325
226	0xbe96543b	-0.29361138
227	0xbe5ddb78	-0.21665752
228	0xbe839b9d	-0.2570466
229	0xbf0077bd	-0.50182706
230	0xbe63cf5a	-0.22247067
231	0xbe3517bd	-0.17684837
232	0x3b9e4336	0.0048297895
233	0xbc06cf43	-0.008228126
234	0x3d7616ec	0.060080454
235	0xbb7a3020	-0.0038175657
236	0xbe47c55e	-0.19508883
237	0xbe5e8439	-0.21730126
238	0xbb754662	-0.0037425985
239	0xbe5c9725	-0.21542032
240	0xbe55e7c1	-0.20889188
241	0xbe954efa	-0.29161817
242	0x3c892657	0.016741915
243	0xbeb205b0	-0.34769964
244	0xbf011c24	-0.50433564
245	0xbe5941c1	-0.2121649
246	0x3d021157	0.031754818
247	0xbea4a0ae	-0.3215384
248	0xbee25191	-0.44202855
249	0xbed04333	-0.4067627
250	0xbe4984a0	-0.19679499
251	0xbe5bd39d	-0.21467443
252	0xbb506b28	-0.0031802151
253	0xbedfd862	-0.43719774
254	0xbdb84b1f	-0.08998703
255	0xbe406e26	-0.18792018

bn1.weight f4 [256]
0	0x3f822b98	1.0169554
1	0x3f900910	1.1252766
2	0x3f4c353f	0.7976875
3	0x3f4eb2f8	0.80741835
4	0x3f737afe	0.95109546
5	0x3f57c893	0.84290427
6	0x3f806c71	1.0033094
7	0x3f7506b3	0.9571335
8	0x3f55e90e	0.8355874
9	0x3f85eb20	1.046238
10	0x3f817a45	1.0115439
11	0x3fbb6929	1.4641467
12	0x3f8136d5	1.0094858
13	0x3f6ee3ce	0.9331635
14	0x3f689ee4	0.9086745
15	0x3f624ff3	0.8840324
16	0x3f6f9379	0.935844
17	0x3f6e1bde	0.9301127
18	0x3f723745	0.94615585
19	0x3f7afeb2	0.98044884
20	0x3f57e160	0.8432827
21	0x3f856ab6	1.042319
22	0x3f99e20b	1.2022108
23	0x3f62a78a	0.88536894
24	0x3f5051cb	0.81374806
25	0x3f9c7500	1.2223206
26	0x3f8055b4	1.0026155
27	0x3f2df29d	0.67948323
28	0x3f6b9241	0.9202004
29	0x3f6d4151	0.9267779
30	0x3f67cb3e	0.905445
31	0x3f4e84c1	0.80671316
32	0x3f72915e	0.9475306
33	0x3faa60b5	1.3310763
34	0x3f874f7a	1.0571129
35	0x3fe24f0f	1.7680377
36	0x3f587c12	0.84564316
37	0x3f773422	0.96563923
38	0x3f784614	0.9698193
39	0x3f640989	0.8907705
40	0x3f71316c	0.94216037
41	0x3f6f30c6	0.934338
42	0x3f53d6a9	0.8274942
43	0x3f46af1d	0.7761095
44	0x3f7ef0f3	0.9958641
45	0x3f7e6064	0.9936583
46	0x3f841daf	1.0321559
47	0x3f4a4ffa	0.79028285
48	0x3f91d867	1.1394166
49	0x3f91be11	1.1386129
50	0x3f6dabb8	0.92840147
51	0x3f90b535	1.13053
52	0x3fb350ec	1.400907
53	0x3f7d16e8	0.9886308
54	0x3fc2f29f	1.5230292
55	0x3f7a9953	0.97890204
56	0x3f5bf55a	0.8592125
57	0x3f80d987	1.0066384
58	0x3f8d3827	1.1032761
59	0x3f9224cf	1.1417483
60	0x3f85fb58	1.0467329
61	0x3f80d6f1	1.0065595
62	0x3f81005d	1.0078236
63	0x3f623f5a	0.88377917
64	0x3f74433f	0.9541511
65	0x3f527d98	0.8222289
66	0x3f824cca	1.0179684
67	0x3f821cbf	1.0165023
68	0x3fb2b52e	1.3961542
69	0x3f6bb226	0.9206871
70	0x3f7475d2	0.9549228
71	0x3f5e4b8e	0.8683404
72	0x3fa1eb76	1.2649982
73	0x3f4ccbf4	0.7999871
74	0x3f95d26b	1.170484
75	0x3f78853b	0.97078294
76	0x3f786ea7	0.9704384
77	0x3f924d0c	1.1429763
78	0x3f90cde9	1.1312839
79	0x3f8dfaf2	1.1092207
80	0x3f897752	1.0739539
81	0x3f8dc601	1.1076051
82	0x3fc12c72	1.5091689
83	0x3f8451c9	1.0337459
84	0x3f813408	1.0094004
85	0x3f7500a2	0.9570409
86	0x3f8b5300	1.0884705
87	0x3f1ddb13	0.61662406
88	0x3f849369	1.0357486
89	0x3fa38bc1	1.2777025
90	0x3f5f4ab3	0.87223357
91	0x3f6335be	0.8875388
92	0x3f873a76	1.0564716
93	0x3f6c288f	0.9224939
94	0x3f5c38e3	0.860243
95	0x3f6a79dc	0.9159219
96	0x3f66d9fc	0.9017637
97	0x3f70ff67	0.94139713
98	0x3f986d41	1.1908342
99	0x3f94ee5f	1.1635245
100	0x3f84eea9	1.0385333
101	0x3f65c21a	0.897493
102	0x3f6fc1df	0.936552
103	0x3f8a29e7	1.0794038
104	0x3f7717f1	0.96520907
105	0x3fa3df05	1.2802435
106	0x3f6ed540	0.93294144
107	0x3f5d0285	0.8633197
108	0x3f8e8ad0	1.1136112
109	0x3f628a82	0.88492596
110	0x3f80303a	1.0014718
111	0x3f7580d4	0.958997
112	0x3f8fe033	1.1240295
113	0x3f6d12e1	0.9260693
114	0x3fa12912	1.2590659
115	0x3f3fd7f5	0.749389
116	0x3f83078f	1.0236682
117	0x3f9eda7a	1.2410424
118	0x3f81906a	1.0122197
119	0x3faa205e	1.3291128
120	0x3fbc3674	1.4704118
121	0x3f6c0eba	0.9220997
122	0x3f517f3a	0.8183476
123	0x3f88e6ea	1.0695469
124	0x3f75ab4e	0.95964515
125	0x3fa75401	1.3072511
126	0x3f969d2e	1.1766717
127	0x3f99ca07	1.2014779
128	0x3f9bbb1a	1.2166474
129	0x3f871fac	1.055654
130	0x3f736c8d	0.9508751
131	0x3f922095	1.1416193
132	0x3f768de4	0.9631026
133	0x3f84fc69	1.038953
134	0x3f253419	0.6453262
135	0x3f7077a7	0.93932575
136	0x3f7facb0	0.99872875
137	0x3f8930f8	1.0718069
138	0x3f0e0195	0.55471164
139	0x3f7ae89a	0.9801117
140	0x3f84695e	1.0344656
141	0x3f7ed42f	0.99542516
142	0x3f295b22	0.6615468
143	0x3f7b68aa	0.9820658
144	0x3f7c1569	0.9847017
145	0x3f80751d	1.003574
146	0x3f9a81d4	1.207087
147	0x3f67af00	0.90501404
148	0x3f3e689c	0.7437837
149	0x3f5bbbcf	0.8583345
150	0x3f53c840	0.8272743
151	0x3f5a1b0d	0.85197526
152	0x3f83fc00	1.0311279
153	0x3f6da5a7	0.9283089
154	0x3f584ad6	0.8448919
155	0x3f5a9977	0.8539042
156	0x3f38d260	0.72196007
157	0x3f6044ee	0.8760518
158	0x3f904314	1.1270471
159	0x3f88d54a	1.0690091
160	0x3f846848	1.0344324
161	0x3fa87994	1.3162103
162	0x3f8caa2d	1.0989434
163	0x3f54e5a9	0.83162934
164	0x3f81f4fc	1.0152888
165	0x3f6b03a5	0.91802436
166	0x3f829e5b	1.0204576
167	0x3f83d42a	1.0299122
168	0x3f71bae3	0.9442579
169	0x3f64c2b0	0.8935957
170	0x3f4d0f87	0.8010182
171	0x3f55d2bd	0.83524686
172	0x3f4e7a01	0.80654913
173	0x3f771dab	0.96529645
174	0x3f85d980	1.0457001
175	0x3f48f71c	0.7850206
176	0x3f4baf5f	0.7956447
177	0x3f977b26	1.1834457
178	0x3f815a69	1.0105716
179	0x3f964edd	1.1742817
180	0x3f3ccbaf	0.73748296
181	0x3f747302	0.9548799
182	0x3f89f915	1.0779139
183	0x3f6b3ed1	0.91892725
184	0x3f8ba580	1.0909882
185	0x3f696122	0.9116384
186	0x3f5b2535	0.8560365
187	0x3fd51665	1.6647459
188	0x3f149c7d	0.5805128
189	0x3f576fd0	0.8415499
190	0x3f74bc4f	0.95599836
191	0x3f8ea060	1.1142693
192	0x3f3e71a7	0.7439217
193	0x3f9365c7	1.1515435
194	0x3f8b936b	1.0904363
195	0x3f8378a2	1.0271189
196	0x3f810d0b	1.0082105
197	0x3f770bb8	0.96502256
198	0x3f565eec	0.8373859
199	0x3f62db6e	0.88616073
200	0x3f785791	0.97008616
201	0x3f6d10f7	0.9260401
202	0x3f930cc5	1.1488272
203	0x3f40284f	0.75061506
204	0x3f6241e8	0.88381815
205	0x3f4ab7b9	0.7918659
206	0x3fd5ae74	1.6693864
207	0x3f9563a3	1.1671032
208	0x3f6803df	0.90630907
209	0x3f9f6b38	1.2454596
210	0x3f75052f	0.95711035
211	0x3f51fc09	0.820252
212	0x3f479e60	0.77976036
213	0x3f56c1ad	0.83889276
214	0x3f483528	0.7820611
215	0x3f89d31f	1.0767554
216	0x3f46802d	0.7753933
217	0x3f73167e	0.94956195
218	0x3f94855e	1.16032
219	0x3fa39c27	1.2782029
220	0x3f5e94a3	0.8694555
221	0x3f75b15f	0.9597377
222	0x3f5deaf7	0.8668665
223	0x3f6e419c	0.9306886
224	0x3f721670	0.94565487
225	0x3f658089	0.89649254
226	0x3f616b04	0.8805392
227	0x3fa7f628	1.3121996
228	0x3f9d7706	1.2301948
229	0x3f863bbf	1.0486983
230	0x3f9c240c	1.2198501
231	0x3f73a0a6	0.95167005
232	0x3f5e074a	0.8672987
233	0x3f7f6503	0.99763507
234	0x3f5d05ff	0.86337274
235	0x3f99d3ad	1.2017723
236	0x3f67e1b7	0.9057879
237	0x3f6b7d55	0.91988117
238	0x3f629228	0.88504267
239	0x3f8dee63	1.1088375
240	0x3fdfa600	1.7472534
241	0x3f7bac42	0.9830972
242	0x3f4d4f9b	0.80199593
243	0x3f7bf57e	0.98421466
244	0x3f653e75	0.89548427
245	0x3f514985	0.81752807
246	0x3f1c6ab5	0.6110032
247	0x3f61a9c2	0.88149655
248	0x3f7d28be	0.9889029
249	0x3f604e53	0.87619513
250	0x3f70200a	0.9379889
251	0x3f526ae5	0.8219436
252	0x3fa428b5	1.2824923
253	0x3f8dec3e	1.108772
254	0x3f6c6825	0.9234641
255	0x3f91d672	1.1393569

bn1.bias f4 [256]
0	0x3e607537	0.21919714
1	0xbd059fe3	-0.032623183
2	0xbe2214ea	-0.1582829
3	0x3edb5ede	0.42845815
4	0x3e078791	0.13235308
5	0x3effec5d	0.49985018
6	0x3e8c44f5	0.2739636
7	0x3e199721	0.14999057
8	0xbc8779af	-0.016537515
9	0x3f0ffd9f	0.5624637
10	0x3e967fb3	0.29394302
11	0x3e21307f	0.15741156
12	0x3e900143	0.28125963
13	0x3dc62566	0.09675102
14	0xbe9c4d36	-0.30527657
15	0x3ea764c8	0.32694077
16	0xbe1e696e	-0.15469906
17	0xbc33f765	-0.010984276
18	0xbe5a5d82	-0.21324733
19	0x3e21e4b3	0.15809898
20	0x3d682f32	0.056685634
21	0x3c6a275a	0.014291609
22	0x3e9dc7dc	0.30816543
23	0xbba1a7b2	-0.004933321
24	0x3e42f6f7	0.19039522
25	0x3e99eda5	0.3006412
26	0x3c1c4e0e	0.009540094
27	0x3e71713b	0.2357835
28	0x3dccb4cd	0.099954225
29	0xbe87d737	-0.26531383
30	0x3ec97cb4	0.39352953
31	0x3e6ba775	0.23013099
32	0x3dff790a	0.12474258
33	0x3e788291	0.24268557
34	0xbdc85394	-0.09781566
35	0x3d5e23dd	0.05423342
36	0xbbf5e370	-0.0075039193
37	0x3e952fbd	0.29137984
38	0x3e98d873	0.29852638
39	0x3efbe934	0.49201357
40	0x3e2f0170	0.17090392
41	0x3e331493	0.17488317
42	0x3e2374ca	0.1596252
43	0x3d99f877	0.07518094
44	0x3e24246b	0.16029517
45	0x3ea15d85	0.31516662
46	0x3e5b845b	0.21437208
47	0xbe46f529	-0.19429459
48	0xbec08da2	-0.37608057
49	0x3e5674fd	0.20943065
50	0xbdc7a1fc	-0.09747693
51	0x3ebf95da	0.37419015
52	0x3e93aa60	0.28840923
53	0x3f24fe33	0.6445038
54	0xbe0e7f00	-0.13915634
55	0x3d29d191	0.041459624
56	0x3d2fef97	0.0429531
57	0x3f0c2691	0.5474635
58	0x3f253496	0.64533365
59	0xbd773cba	-0.060360648
60	0x3f04648d	0.5171593
61	0x3e0eda30	0.1395042
62	0x3e2fdb3b	0.17173474
63	0x3ec94e6a	0.39317638
64	0x3d200a54	0.03907235
65	0x3e3556cc	0.17708892
66	0xbc8f1b96	-0.017469209
67	0x3e6064b3	0.21913414
68	0x3e28158f	0.16414474
69	0xbd1c0d44	-0.03809859
70	0x3ea3f78e	0.32024807
71	0x3eae6311	0.34059957
72	0x3df786e6	0.12086277
73	0xbd0399e9	-0.032129202
74	0x3efe5463	0.49673757
75	0x3daf7825	0.085678376
76	0x3e171ab7	0.14756285
77	0xbd9a6445	-0.07538656
78	0xbaefd7a9	-0.0018298525
79	0xbd861f13	-0.06548896
80	0x3f054b74	0.5206826
81	0x3d5b31e8	0.05351439
82	0xbc7d65d0	-0.0154661685
83	0x3e2dae54	0.16961032
84	0xbd3ac5c8	-0.045598775
85	0x3c434d3d	0.0119202705
86	0x3ece8ff7	0.4034421
87	0x3d2f4b72	0.04279656
88	0x3df2efcb	0.11862143
89	0x3f1b072a	0.60557806
90	0x3f1dae7d	0.61594373
91	0xbdb065af	-0.086131446
92	0x3e0db700	0.1383934
93	0x3da9f423	0.082985185
94	0x3f0e627f	0.55619043
95	0x3e8de33b	0.27712426
96	0xbe2e2ef8	-0.17010105
97	0x3e8c971a	0.2745903
98	0x3ece20ce	0.40259403
99	0x3ed27e09	0.41111782
100	0x3f1a8d09	0.6037145
101	0x3eaa675a	0.33281976
102	0x3d5c86dd	0.053839553
103	0x3ea2d6fd	0.31804648
104	0x3e867699	0.26262358
105	0xbdab0325	-0.08350209
106	0x3f0e4c2a	0.5558497
107	0x3e209c19	0.15684547
108	0x3e345f72	0.17614534
109	0xbd14fdd7	-0.036374893
110	0xbb420d77	-0.0029610076
111	0x3ec30596	0.380902
112	0x3e917bc6	0.28414744
113	0x3f133662	0.57504857
114	0x3e1f4e00	0.15557098
115	0x3e59d5aa	0.21272913
116	0x3e8e5508	0.2779925
117	0xbe3b0f41	-0.18267538
118	0x3e4680cd	0.19385071
119	0x3f0deb1d	0.5543688
120	0xbe3d99e5	-0.18515737
121	0xbdd5b56c	-0.10434994
122	0x3e51261a	0.20424691
123	0x3ec9a4a8	0.39383435
124	0x3e78f59a	0.2431244
125	0x3eb9961b	0.36247334
126	0xbed4a885	-0.4153482
127	0x3ed72c91	0.4202619
128	0x3f07b107	0.530045
129	0xbdfed4dc	-0.124429435
130	0x3d1b7e4a	0.037962236
131	0xbea61579	-0.32438257
132	0xbe1a105c	-0.15045303
133	0x3e1d52e1	0.15363647
134	0x3e869512	0.26285607
135	0x3ec14a7c	0.3775214
136	0x3f0c766c	0.548682
137	0x3ee9e292	0.45680672
138	0xbe663e4c	-0.22484702
139	0x3f29524f	0.6614122
140	0x3f02fb88	0.51165056
141	0xbe8543bd	-0.26028243
142	0x3ed15020	0.40881443
143	0xbc9952a7	-0.01871617
144	0x3e550180	0.20801353
145	0x3dba3d17	0.09093683
146	0x3e1491bd	0.1450872
147	0x3f607de0	0.8769207
148	0xbe3481fb	-0.17627709
149	0xbdd45f5e	-0.10369752
150	0x3e9ca746	0.3059637
151	0x3e376e99	0.17913283
152	0xbe758a17	-0.23978458
153	0x3dd35fda	0.103210166
154	0x3cb0c905	0.021580229
155	0x3ed3e546	0.4138586
156	0x3ecd688a	0.4011882
157	0xbed2fa7e	-0.41206735
158	0x3ea94bfd	0.33065787
159	0x3ca8a74b	0.020587584
160	0x3eff20e9	0.49829796
161	0x3eeaf9cb	0.45893702
162	0x3ecfa110	0.40552568
163	0xbe3e8416	-0.18605074
164	0x3eace11e	0.337655
165	0x3e10b0c7	0.14129935
166	0x3e056d23	0.13029914
167	0x3ea363f2	0.3191219
168	0x3f0e4cd4	0.5558598
169	0x3e56df06	0.20983514
170	0x3e957c81	0.2919655
171	0xbe9b1722	-0.30291086
172	0x3ee50ed8	0.44737887
173	0x3eabe73a	0.3357485
174	0x3dcf11bd	0.10110805
175	0xbe2f9fa0	-0.17150736
176	0xbd1b34a5	-0.037892003
177	0x3e7443f8	0.23854053
178	0x3e7f57b8	0.24935806
179	0x3e1200ad	0.1425807
180	0x3c07fc51	0.008299903
181	0x3e2fbdbb	0.1716222
182	0x3d57c0aa	0.052673973
183	0x3de235f0	0.11045444
184	0x3e0e8684	0.13918501
185	0x3f058a12	0.52163804
186	0xbdac5504	-0.08414653
187	0x3ea637a2	0.3246432
188	0x3ec5dc40	0.386446
189	0x3e84385a	0.25824243
190	0x3dfdb18e	0.123873815
191	0xbdb98147	-0.09057861
192	0xbe0a92a9	-0.13532509
193	0x3ebb4bfa	0.36581403
194	0x3f04d045	0.51880294
195	0x3e2b26d9	0.16714038
196	0xbec091e6	-0.37611312
197	0xbd5b2cbe	-0.053509466
198	0x3d964178	0.07336706
199	0x3ea7cff0	0.3277583
200	0x3eecb7c2	0.46233946
201	0x3f087dea	0.5331713
202	0xbe4652ae	-0.19367477
203	0x3f0148d6	0.50501764
204	0xbd250ffe	-0.040298454
205	0xbea034f2	-0.31290394
206	0x3eacbabd	0.3373622
207	0xbe2eaa60	-0.1705718
208	0x3de9d255	0.11417071
209	0x3e7d5ba1	0.24741985
210	0x3e875adb	0.26436505
211	0x3f076fbf	0.52904886
212	0x3f0a62d5	0.54057056
213	0x3eb55f29	0.35424164
214	0x3e2261ff	0.15857695
215	0x3f04012f	0.51564306
216	0x3e7f8b48	0.24955475
217	0x3eb48444	0.3525716
218	0x3eb84471	0.35989717
219	0x3c154c4a	0.009112427
220	0xbe5e63a5	-0.21717699
221	0xbde8851e	-0.11353515
222	0x3e6b3d2d	0.22972555
223	0x3e8b9fc3	0.27270326
224	0xbe371bbd	-0.17881675
225	0x3e267962	0.16257241
226	0xbdd7fac1	-0.105458744
227	0x3e1020a8	0.14074957
228	0xbe9b5a9f	-0.30342576
229	0x3f077944	0.5291941
230	0x3dadbad5	0.08482901
231	0x3ef8f713	0.48626003
232	0xbd0f76e8	-0.035025507
233	0xbe925d9d	-0.28587046
234	0x3e6bd71e	0.2303128
235	0xbd819773	-0.06327715
236	0x3ecf4aff	0.40486905
237	0x3db10238	0.08643001
238	0x3e040555	0.12892659
239	0xbe5f2980	-0.21793175
240	0x3e7d4324	0.24732643
241	0xbb4798f7	-0.0030456164
242	0x3e29f768	0.16598284
243	0x3e0f61d3	0.1400216
244	0x3e5d21ad	0.21594878
245	0xbdea2f9d	-0.11434863
246	0x3db8db85	0.09026245
247	0xbe61e9ea	-0.22061887
248	0x3f0fe191	0.5620356
249	0x3ebf9d40	0.3742466
250	0xbc9a10bf	-0.018806813
251	0xbd40aa83	-0.047037613
252	0xbcc85012	-0.024452243
253	0x3e93bd1d	0.2885522
254	0x3dbe5975	0.09294406
255	0x3ebcfe4d	0.36912766

bn1.running_mean f4 [256]
0	0x3e26fcf0	0.16307425
1	0x3e444c72	0.19169787
2	0x3e8c11f8	0.2735746
3	0x3e98d59c	0.2985047
4	0x3e42aaec	0.19010514
5	0x3e2f626a	0.17127386
6	0x3e4e7e92	0.2016547
7	0x3e45a4bc	0.19301122
8	0x3d8a17e8	0.06742841
9	0x3e7dbbfa	0.24778739
10	0x3eaf976f	0.34295222
11	0x3e116b12	0.14201
12	0x3e61cd4d	0.22050972
13	0x3e3b1135	0.18268283
14	0x3eb01a90	0.34395266
15	0x3e91417d	0.28370276
16	0x3e79d4a1	0.24397518
17	0x3ea773c9	0.32705525
18	0x3f481f27	0.78172535
19	0x3f1ee570	0.62068844
20	0x3ed58334	0.41701663
21	0x3eb96ba1	0.36214927
22	0x3e967ca7	0.29391977
23	0x3f60674c	0.8765762
24	0x3e124ddf	0.14287518
25	0x3ea53672	0.322681
26	0x3e1c7a2c	0.1528098
27	0x3e429b11	0.19004466
28	0x3e192c4a	0.14958301
29	0x3e35acd3	0.17741708
30	0x3eec3328	0.4613278
31	0x3e67aa84	0.2262364
32	0x3e9268eb	0.2859567
33	0x3e999ca0	0.30002308
34	0x3ef58577	0.47953388
35	0x3e24a599	0.16078795
36	0x3fdcf07c	1.726089
37	0x3f575630	0.84115887
38	0x3ee2383a	0.44183522
39	0x3eeaa0b1	0.45825723
40	0x3e06ce2f	0.1316459
41	0x3e03037d	0.127943
42	0x3f686bae	0.90789306
43	0x3ebc5ff5	0.3679196
44	0x3e4869dc	0.19571632
45	0x3e92ca7d	0.2867011
46	0x3e53a5ef	0.20668767
47	0x3e009b22	0.12559178
48	0x3e8a3f61	0.2700148
49	0x3de81870	0.11332786
50	0x3eb73ab3	0.3578697
51	0x3f351d77	0.70748085
52	0x3e917729	0.28411224
53	0x3d9ffeb2	0.07812251
54	0x3e4176ab	0.18892924
55	0x3ec010d8	0.3751285
56	0x3e681d2a	0.22667375
57	0x3e04573e	0.12923905
58	0x3ea1923a	0.31556875
59	0x3ec2ae2a	0.38023502
60	0x3e8cbcc0	0.27487755
61	0x3e90edfa	0.28306562
62	0x3f4359da	0.7630898
63	0x3e9f7872	0.3114658
64	0x3e7d993e	0.24765489
65	0x3e83e3de	0.25759786
66	0x3f865ee5	1.049771
67	0x3e60c23d	0.21949096
68	0x3ef5be0b	0.47996554
69	0x3f10e4d0	0.5659914
70	0x3e6a5c77	0.22886835
71	0x3f832d54	1.0248208
72	0x3dbad04a	0.09121759
73	0x3e7cf395	0.24702294
74	0x3e4e647b	0.20155518
75	0x3e4a53ba	0.19758502
76	0x3e38fd62	0.18065408
77	0x3eb18c41	0.34677318
78	0x3ee1361a	0.4398659
79	0x3e0561d3	0.13025598
80	0x3f64e0bc	0.8940542
81	0x3dc758e5	0.09733752
82	0x3e4a310e	0.19745275
83	0x3d3fe020	0.0468446
84	0x3e93dd42	0.28879744
85	0x3e2c851f	0.16847657
86	0x3e576d7a	0.21037856
87	0x3f7cb181	0.9870835
88	0x3dc14e74	0.09438792
89	0x3e8b808d	0.27246514
90	0x3f00dae3	0.50333995
91	0x3f283459	0.65704876
92	0x3e02c0fb	0.12768929
93	0x3f0eeaa6	0.55826795
94	0x3dbe9eed	0.093076564
95	0x3fac4448	1.3458338
96	0x3e9e5993	0.30927715
97	0x3e4e3cd1	0.20140387
98	0x3ff3431b	1.9004854
99	0x3ee35def	0.44407603
100	0x3e5ea9ab	0.2174441
101	0x3f0c99d6	0.54922235
102	0x3ef82cbb	0.48471627
103	0x3e014774	0.12624913
104	0x3e8615de	0.26188558
105	0x3d9e0a9c	0.07716867
106	0x3e2d1010	0.16900659
107	0x3e0ea9b1	0.1393192
108	0x3e1b5d88	0.15172398
109	0x3e90feb9	0.28319338
110	0x3eccee0e	0.4002537
111	0x3f040755	0.5157369
112	0x3eb69544	0.35660756
113	0x3f28883b	0.6583287
114	0x3e01f963	0.1269279
115	0x3e4c3b71	0.1994455
116	0x3defd05f	0.117096655
117	0x3e233df4	0.15941602
118	0x3eb83b38	0.3598268
119	0x3e1faea5	0.15593965
120	0x3eaad34d	0.33364335
121	0x3e7aa71f	0.24477814
122	0x3ddc4feb	0.10757431
123	0x3e011840	0.12606907
124	0x3eb1823e	0.3466968
125	0x3daf7181	0.08566571
126	0x3e8f1eec	0.2795328
127	0x3dc088d0	0.09401095
128	0x3f189539	0.59602696
129	0x3f4dffb2	0.80468285
130	0x3e178990	0.1479857
131	0x3f09e7d0	0.5386934
132	0x3f4a20ef	0.789565
133	0x3eb0b610	0.34513903
134	0x3e582d76	0.21111092
135	0x3f09c109	0.53810173
136	0x3e8678e2	0.262641
137	0x3e086009	0.13317885
138	0x3e8bd1bf	0.2730846
139	0x3e6666bf	0.22500132
140	0x3dd8fbd5	0.10594908
141	0x3eae541f	0.34048554
142	0x3ebafff4	0.36523402
143	0x3e5b82e6	0.21436653
144	0x3e71adfe	0.23601529
145	0x3ee88030	0.454103
146	0x3ebf11e5	0.3731834
147	0x3e26dfd8	0.16296327
148	0x3e78020d	0.24219532
149	0x3ebbc8d8	0.3667667
150	0x3df7ba3c	0.12096068
151	0x3ebf5cab	0.37375388
152	0x3ec3abf0	0.38217115
153	0x3e6fe12b	0.23425739
154	0x3e68c47c	0.22731203
155	0x3e6203b2	0.22071722
156	0x3f319200	0.69363403
157	0x3e2953fb	0.16535942
158	0x3ea929f1	0.3303981
159	0x3eaf9658	0.3429439
160	0x3e663a96	0.22483286
161	0x3eadffe6	0.33984298
162	0x3f041606	0.51596105
163	0x3dca67c2	0.098830715
164	0x3e0b80fc	0.13623422
165	0x3da2a05a	0.07940741
166	0x3f023845	0.5086711
167	0x3e99636e	0.2995867
168	0x3e8372f3	0.25673637
169	0x3e9db62b	0.30803046
170	0x3f925b4c	1.1434112
171	0x3ee766de	0.4519567
172	0x3ea79b73	0.32735786
173	0x3e445cdd	0.1917605
174	0x3ee60752	0.4492746
175	0x3ec067f7	0.3757932
176	0x3def8175	0.11694614
177	0x3f213007	0.6296391
178	0x3e2381cc	0.15967482
179	0x3daad52b	0.0834144
180	0x3f4f7ed3	0.81052893
181	0x3f333354	0.70000196
182	0x3e9430a7	0.2894337
183	0x3f067d49	0.5253492
184	0x3f06e309	0.5269018
185	0x3e966f99	0.29382017
186	0x3f68094d	0.9063919
187	0x3ef85fb4	0.48510516
188	0x3ef79b56	0.483607
189	0x3edc0137	0.42969677
190	0x3f48dd7c	0.7846296
191	0x3e4ac3ac	0.19801205
192	0x3f38a958	0.721334
193	0x3ed20993	0.4102293
194	0x3f3b6821	0.73205763
195	0x3e3b4203	0.182869
196	0x3e00a2f9	0.12562169
197	0x3f0441df	0.5166301
198	0x3e9631ac	0.29334772
199	0x3ea60a9c	0.3242997
200	0x3f864f08	1.0492868
201	0x3e86dc0b	0.26339754
202	0x3dd85624	0.10563305
203	0x3eb3df31	0.3513122
204	0x3e42dd18	0.19029653
205	0x3f1a029b	0.60160226
206	0x3e9ac96f	0.30231807
207	0x3deb08e1	0.11476303
208	0x3f516694	0.81797147
209	0x3ef10cbf	0.47080037
210	0x3e5431bd	0.20722099
211	0x3ea0f4fa	0.31436902
212	0x3f934fed	1.1508766
213	0x3f1049e2	0.56362736
214	0x3e61eb6f	0.22062467
215	0x3eb565e4	0.354293
216	0x3e3277ea	0.17428556
217	0x3e861ee0	0.2619543
218	0x3df1afc0	0.118011
219	0x3ecf8fce	0.40539402
220	0x3dbbe29a	0.0917408
221	0x3e06b8c5	0.13156421
222	0x3e2faed0	0.1715653
223	0x3efb1469	0.4903901
224	0x3e2efbe8	0.17088282
225	0x3e8bdcad	0.273168
226	0x3e978ee4	0.29601204
227	0x3e44b919	0.19211234
228	0x3e96a7cb	0.2942489
229	0x3da00665	0.0781372
230	0x3e58f3fd	0.21186824
231	0x3f146558	0.5796714
232	0x3e9bd57e	0.3043632
233	0x3ea7ae5a	0.32750207
234	0x3eaa89a5	0.3330814
235	0x3ecf85c0	0.4053173
236	0x3ec3674b	0.38164744
237	0x3f35f217	0.71072525
238	0x3e1602a8	0.14649451
239	0x3e9c26f0	0.30498457
240	0x3e870c84	0.26376736
241	0x3e56d1f6	0.20978531
242	0x3f940896	1.156512
243	0x3ea22770	0.31670713
244	0x3ee3e06b	0.44507155
245	0x3ebc10de	0.3673162
246	0x3f7c8ec3	0.9865534
247	0x3e29d766	0.16586074
248	0x3eb4897d	0.35261145
249	0x3e1050a5	0.14093263
250	0x3dbde1e2	0.09271599
251	0x3e9df73f	0.30852696
252	0x3ec99bf4	0.39376795
253	0x3e3bea6e	0.18351147
254	0x3dfd7a9e	0.12376903
255	0x3e2000f1	0.15625359

bn1.running_var f4 [256]
0	0x3e1c0797	0.1523727
1	0x3e64a27c	0.22327608
2	0x3ee76f78	0.4520223
3	0x3f002962	0.50063145
4	0x3e930b2e	0.28719467
5	0x3e69d623	0.22835593
6	0x3e51eae1	0.20499755
7	0x3ec641cb	0.3872207
8	0x3d565073	0.052322816
9	0x3e909946	0.28241938
10	0x3f23a8dc	0.63929534
11	0x3dd6869e	0.10474895
12	0x3e94be58	0.2905147
13	0x3e83d506	0.2574846
14	0x3ea59898	0.32342982
15	0x3e9c925d	0.30580416
16	0x3e871bb8	0.26388335
17	0x3f112e3c	0.56711173
18	0x3ed05611	0.40690663
19	0x3f309918	0.689836
20	0x3f73d20f	0.952424
21	0x3ea885ba	0.32914525
22	0x3eafaa28	0.34309506
23	0x3fe76037	1.8076237
24	0x3e022b53	0.1271184
25	0x3e9b2aa9	0.30305985
26	0x3e16354d	0.1466877
27	0x3e995e89	0.29954937
28	0x3e2722f1	0.16321923
29	0x3e3bd0b8	0.18341339
30	0x3f0a423f	0.54007334
31	0x3e9f38a9	0.31097916
32	0x3ea39f1e	0.31957334
33	0x3eb26132	0.3483978
34	0x3f26a5ab	0.6509654
35	0x3e12ecf1	0.14348198
36	0x3fd1496a	1.6350529
37	0x3f2a402d	0.66504174
38	0x3f4c6ed3	0.79856604
39	0x3f1918c7	0.5980343
40	0x3e183c7c	0.14866823
41	0x3e29bf9a	0.16576996
42	0x3faa2b23	1.3294414
43	0x3f00829a	0.5019928
44	0x3e59b3c9	0.21259989
45	0x3ead8868	0.33893132
46	0x3e2c7c4a	0.16844288
47	0x3e30dabc	0.1727094
48	0x3e7820bc	0.24231237
49	0x3dd9bd1b	0.10631772
50	0x3efb95af	0.49137637
51	0x3f6bb581	0.9207383
52	0x3e93dbc8	0.28878617
53	0x3d979b2a	0.07402642
54	0x3e319c38	0.17344749
55	0x3f270f42	0.65257657
56	0x3e86af96	0.26305836
57	0x3e191c08	0.149521
58	0x3eb6e3e6	0.35720748
59	0x3eb433bb	0.35195717
60	0x3ed54ec1	0.41661647
61	0x3ea079dd	0.31342974
62	0x3f744cda	0.95429766
63	0x3ebfd042	0.37463576
64	0x3e840dc5	0.25791755
65	0x3ee0b568	0.43888402
66	0x3f16b906	0.58876073
67	0x3e71ead5	0.23624738
68	0x3ed25e5d	0.41087618
69	0x3f66a046	0.9008831
70	0x3e6d225d	0.2315764
71	0x3fc19c69	1.5125858
72	0x3db9f454	0.09079805
73	0x3ead87e9	0.33892754
74	0x3e70c118	0.2351116
75	0x3e74bfe6	0.23901328
76	0x3e55475e	0.20828006
77	0x3effb467	0.49942324
78	0x3ed90662	0.42387682
79	0x3e23bdde	0.15990397
80	0x3f24ff01	0.64451605
81	0x3e1b714e	0.15179941
82	0x3e5af2f3	0.2138174
83	0x3da5baec	0.08092293
84	0x3eb92348	0.3615973
85	0x3e894ce1	0.26816466
86	0x3e5c9038	0.2153939
87	0x3f731460	0.94952965
88	0x3dc517f7	0.096237116
89	0x3e93c960	0.28864574
90	0x3f1bf02d	0.60913354
91	0x3f6a6cf8	0.91572523
92	0x3e0be940	0.13663197
93	0x3f384bcb	0.7199065
94	0x3e4024cf	0.18764041
95	0x3f8750ff	1.0571593
96	0x3f02549a	0.5091034
97	0x3eaf5e20	0.342515
98	0x3f57a8c5	0.84241897
99	0x3ea0cf19	0.31408003
100	0x3ecbe2d9	0.3982151
101	0x3f0f9231	0.56082445
102	0x3f886ce8	1.0658236
103	0x3e1aa675	0.15102561
104	0x3e38f7fe	0.18063352
105	0x3d460bc7	0.048351076
106	0x3e3292c6	0.17438802
107	0x3e08158d	0.13289471
108	0x3e4ca08d	0.1998312
109	0x3e95a55d	0.29227725
110	0x3f08875d	0.5333155
111	0x3f280afb	0.65641755
112	0x3eb77ce6	0.35837477
113	0x3f834683	1.0255893
114	0x3db564d2	0.088571206
115	0x3e77ce9b	0.24199907
116	0x3e0d48ce	0.13797304
117	0x3e2a81ac	0.16651028
118	0x3f2eb2b2	0.6824142
119	0x3e132465	0.14369352
120	0x3eb17d84	0.34666073
121	0x3ea9f5a6	0.33195227
122	0x3dd4a7e2	0.103835836
123	0x3e23f36a	0.16010824
124	0x3f14f465	0.58185416
125	0x3d957f59	0.0729968
126	0x3e99da68	0.30049443
127	0x3e0aaae6	0.13541755
128	0x3f1bb166	0.60817564
129	0x3ef641fa	0.4809721
130	0x3e0a0fad	0.13482542
131	0x3f0397b2	0.51403344
132	0x3f699694	0.9124539
133	0x3e955ac5	0.29170814
134	0x3e8af79a	0.2714203
135	0x3f31f985	0.6952136
136	0x3ea4ea3b	0.32209954
137	0x3e17da27	0.14829312
138	0x3ecfa0b9	0.4055231
139	0x3e7ee92b	0.24893634
140	0x3e135393	0.1438735
141	0x3eda1711	0.42595723
142	0x3ef7469b	0.48296055
143	0x3e899d45	0.268778
144	0x3e8091b7	0.25111172
145	0x3f14e5e7	0.58163303
146	0x3ebe6c30	0.37191916
147	0x3e25195d	0.16122957
148	0x3ed783f9	0.42092875
149	0x3e994e5c	0.29942596
150	0x3e09568f	0.13411926
151	0x3f02f90b	0.5116126
152	0x3f0c17b2	0.54723656
153	0x3e96c9d4	0.29450858
154	0x3e8682f6	0.2627179
155	0x3e874209	0.26417568
156	0x3f735b24	0.95060945
157	0x3e90291d	0.28156367
158	0x3e8eb742	0.2787419
159	0x3edb7fe7	0.4287102
160	0x3e6491cd	0.22321244
161	0x3ea62837	0.32452556
162	0x3f0107a8	0.5040231
163	0x3dae4ce2	0.08510758
164	0x3e0c6d7d	0.13713641
165	0x3dd2934a	0.102819994
166	0x3ef6b53c	0.48185146
167	0x3e9edbd0	0.3102708
168	0x3ebbd38a	0.3668483
169	0x3ef0c9cf	0.47028968
170	0x3fb15857	1.3855084
171	0x3f201431	0.6253081
172	0x3e9ff0bc	0.31238353
173	0x3e28eba9	0.16496147
174	0x3f0481a4	0.51760316
175	0x3f146ac0	0.5797539
176	0x3e17c063	0.14819483
177	0x3f40e565	0.7535003
178	0x3e0740f0	0.13208365
179	0x3d8863e2	0.06659676
180	0x3fba7a8d	1.456865
181	0x3f828b8d	1.0198838
182	0x3eb972d3	0.36220416
183	0x3f7d2531	0.98884875
184	0x3f5b8926	0.85756147
185	0x3eb2e241	0.34938243
186	0x3f8d3258	1.1030989
187	0x3eeaea33	0.45881805
188	0x3f116dbf	0.56808084
189	0x3ec4e9dc	0.3845967
190	0x3fa848c3	1.3147205
191	0x3e4a9887	0.19784747
192	0x3f3c8f87	0.73656505
193	0x3ebd3c96	0.36960286
194	0x3ee6a3e9	0.4504693
195	0x3e415c5f	0.18882893
196	0x3ded2e1c	0.1158106
197	0x3f5acad0	0.8546572
198	0x3ec42b2c	0.38314188
199	0x3eb14544	0.34623158
200	0x3fb69dcd	1.4266907
201	0x3ecfa1be	0.40553087
202	0x3db3b334	0.08774415
203	0x3f047297	0.5173735
204	0x3e40fd48	0.18846619
205	0x3f7d53f8	0.9895625
206	0x3e80d6af	0.2516379
207	0x3e08bbcf	0.13352893
208	0x3f6440ab	0.89161175
209	0x3f03404e	0.51269996
210	0x3e47b841	0.19503881
211	0x3ea0ab3e	0.31380647
212	0x3f339662	0.7015134
213	0x3ec79cad	0.38986722
214	0x3e98d0ce	0.29846805
215	0x3ecabab2	0.39595562
216	0x3e6a723d	0.22895141
217	0x3ea60ea9	0.3243306
218	0x3e0d81a6	0.13818988
219	0x3ec54db1	0.38535836
220	0x3dd232c1	0.10263587
221	0x3e079483	0.13240246
222	0x3e5d7ab8	0.21628845
223	0x3f14f6a5	0.5818885
224	0x3e192d06	0.14958581
225	0x3ed7033d	0.41994658
226	0x3ebb09b4	0.3653084
227	0x3e30d86e	0.17270061
228	0x3ea58787	0.32329962
229	0x3d80e1e1	0.06293083
230	0x3e4b6c7f	0.19865607
231	0x3f2437c8	0.64147615
232	0x3f190e9b	0.5978791
233	0x3ed3b5c1	0.41349605
234	0x3f02153e	0.50813663
235	0x3ed0fa43	0.40815935
236	0x3f429796	0.7601255
237	0x3f2ab339	0.6667972
238	0x3e28fa4b	0.16501729
239	0x3ee2b55e	0.44278997
240	0x3e62a1a4	0.22131974
241	0x3e5f5ccf	0.21812747
242	0x3f97ff96	1.1874874
243	0x3ee30959	0.4434307
244	0x3f0d9806	0.55310094
245	0x3f0a2bf5	0.53973323
246	0x3fb270f0	1.3940716
247	0x3e1f4edd	0.15557428
248	0x3ee0685d	0.43829623
249	0x3e03597d	0.12827106
250	0x3db8a5cc	0.09015998
251	0x3f0ce19b	0.55031747
252	0x3eaf7dc0	0.34275627
253	0x3e3b562c	0.1829459
254	0x3e0cf8f7	0.13766848
255	0x3e70dbbc	0.23521322

fc2.weight f4 [128, 256]
0	0xbece8692	-0.40337044
1	0xbf06b7e6	-0.52624357
2	0xbeeef51a	-0.46671373
3	0x3c830eba	0.015998233
4	0x3e1dfb76	0.15427956
5	0xbd5fa1c3	-0.054597627
6	0xbdd3b491	-0.10337175
7	0x3cc7d29f	0.024392424
8	0x3e87e698	0.26543117
9	0x3cb0ee84	0.021598108
10	0xbe5e02a2	-0.21680692
11	0xbd956eed	-0.07296548
12	0x3df0a084	0.11749366
13	0xbe1e0009	-0.15429701
14	0x3d6e7bfe	0.058223717
15	0x396b5b9f	0.00022445478
16	0x3d060fb0	0.032729805
17	0x3e1b9ac7	0.15195762
18	0xbe78473e	-0.24245927
19	0x3e354c4d	0.17704888
20	0xbd83c651	-0.0643431
21	0xbe8d8ec4	-0.27647984
22	0xbe0cd6f3	-0.13753872
23	0x3e6b4cbc	0.2297849
24	0x3d7c36fc	0.061575875
25	0xbd5ff36e	-0.054675512
26	0x3cda63b4	0.02665887
27	0x3e8a99fe	0.27070612
28	0xbd9550eb	-0.072908245
29	0xbe3722a0	-0.17884302
30	0xbe7fe2b7	-0.24988829
31	0x3e88430b	0.2661365
32	0xbd18cda9	-0.037305508
33	0xbef9a2fc	-0.4875716
34	0xbdda3ce8	-0.10656148
35	0xbe3c78da	-0.18405476
36	0xbeb3c4fe	-0.3511123
37	0xbdd2b36d	-0.10288129
38	0xbd34ed3f	-0.044171568
39	0xbf21da1e	-0.63223445
40	0x3e6362d9	0.22205676
41	0x3e21612c	0.15759724
42	0x3d4078df	0.04699027
43	0x3e4cbb63	0.19993357
44	0x3c29ef46	0.010371989
45	0x3d848f6e	0.064726695
46	0x3de52177	0.111880235
47	0xbddabebb	-0.1068091
48	0x3d8011ae	0.06253372
49	0x3dabe063	0.08392408
50	0xbf02fe14	-0.5116894
51	0xbddc4ca6	-0.10756807
52	0x3bed5293	0.0072425096
53	0x3ebdbc18	0.37057567
54	0x3e0c3561	0.13692237
55	0xbd24924d	-0.040178586
56	0xbdcb9a74	-0.09941569
57	0xbcac54d9	-0.021036552
58	0x3db9aff8	0.090667665
59	0x3e6df7cd	0.2323906
60	0x3cb0f7aa	0.02160247
61	0x3e4a3471	0.19746567
62	0x3e2278f0	0.15866446
63	0xbd47534b	-0.04866342
64	0xbdab424b	-0.08362254
65	0x3d98c217	0.07458895
66	0x3e2e697a	0.17032424
67	0xbeac709b	-0.3367966
68	0x3e9aaad2	0.3020845
69	0x395151dc	0.00019962288
70	0x3dd294a3	0.102822565
71	0x3c4ee5a3	0.012627992
72	0x3d9ab782	0.075545326
73	0xbd282623	-0.041051995
74	0xbf191cd3	-0.5980961
75	0x3e5eeb63	0.2176948
76	0x3da1e111	0.07904256
77	0x3d588c0e	0.05286794
78	0xbe60a988	-0.21939671
79	0xbebcccf0	-0.36875105
80	0x3d21968f	0.039450224
81	0x3d909a9b	0.07060739
82	0xbec2c06c	-0.3803743
83	0xbe52c509	-0.20582975
84	0xbe468878	-0.19387996
85	0x3e229f9c	0.15881199
86	0x3e6e0db8	0.23247421
87	0xbe2e5558	-0.17024744
88	0x3d942aef	0.072347514
89	0xbdf7fb93	-0.12108531
90	0x3ea376f6	0.31926697
91	0xbeb13ef7	-0.3461835
92	0xbea87c01	-0.32907107
93	0x3d58c769	0.052924547
94	0xbed0595c	-0.40693176
95	0x3df4d625	0.11954907
96	0x3de2284e	0.11042844
97	0x3cdd02d4	0.026978888
98	0xbee8b8ae	-0.454534
99	0x3d690e6b	0.056898516
100	0x3e78a5fd	0.2428207
101	0xbdf33d98	-0.118769825
102	0x3e95f231	0.2928634
103	0xbe2069fc	-0.1566543
104	0xbd9af3b6	-0.075660154
105	0x3e0e0b92	0.13871601
106	0xbcb37ed6	-0.021911066
107	0x3d89a033	0.06720009
108	0xbe5a7ab9	-0.21335877
109	0xbd93d6f9	-0.07218737
110	0xbd4d6d4d	-0.050153065
111	0x3b720be2	0.0036933352
112	0xbf2605c5	-0.64852554
113	0x3e36cfe9	0.17852749
114	0xbc6c6e0a	-0.014430532
115	0x3d2a2ea6	0.041548394
116	0xbe61daa6	-0.22056064
117	0x3d759fd9	0.059966896
118	0x3b95445a	0.0045552673
119	0x3d8da99f	0.06917118
120	0xbe9ab512	-0.3021627
121	0x3cff32f9	0.031152235
122	0x3decc460	0.11560893
123	0x3cd611f1	0.026131602
124	0x3d9575c9	0.07297856
125	0x3ee023c4	0.43777287
126	0xbe89f7bd	-0.26946822
127	0x3e973a9b	0.295369
128	0x3d049baf	0.032375034
129	0x3e21788c	0.15768641
130	0x3d8cadba	0.06869073
131	0x3e487303	0.19575123
132	0xbee9a9be	-0.45637316
133	0x3dbdc906	0.09266858
134	0xbe6373a3	-0.2221208
135	0xbeb1017b	-0.34571442
136	0x3d3c648a	0.04599432
137	0x3dac9ea0	0.08428693
138	0xbde550c8	-0.111970484
139	0xbe2263ea	-0.15858427
140	0xbecb5086	-0.39709872
141	0xbe8ff85c	-0.2811917
142	0xbd6597fa	-0.05605314
143	0x3e41901f	0.18902634
144	0x3e02ef1a	0.12786523
145	0x3e983eec	0.29735506
146	0x3c0be764	0.008539055
147	0x3debc457	0.11512058
148	0x3d152c62	0.03641928
149	0xbd673add	-0.05645262
150	0x3e2b714e	0.16742441
151	0xbe24776e	-0.16061184
152	0xbd14532c	-0.03621213
153	0x3e39c113	0.18140058
154	0xbd257335	-0.040393073
155	0x3d8a9eb8	0.067685544
156	0x3d4de6d2	0.050268956
157	0x3df5b485	0.11997322
158	0xbda554db	-0.080728255
159	0xbde7157f	-0.11283397
160	0xbd79f320	-0.061022878
161	0xbe2061e9	-0.1566235
162	0xbc8fc97b	-0.017552128
163	0x3e5c7b0e	0.21531317
164	0x3e2dd7eb	0.16976897
165	0xbd45ad22	-0.048260815
166	0xbe9b7696	-0.3036391
167	0xbf018343	-0.50590914
168	0xbe7cf858	-0.2470411
169	0xbe1a90e7	-0.15094338
170	0x3de74376	0.11292164
171	0x3e6488dc	0.22317833
172	0xbd12e73c	-0.035865054
173	0x3e844fdb	0.25842175
174	0x3e39cc4f	0.18144344
175	0x3e20bf25	0.15697916
176	0xbb30f142	-0.002699927
177	0xbdd37178	-0.10324377
178	0x3dc44acb	0.09584578
179	0x3da96f8f	0.08273231
180	0xbe30e950	-0.17276502
181	0x3d0bea9f	0.0341593
182	0x3e9aa69b	0.30205235
183	0x3d009fa2	0.031402238
184	0x3ea6e378	0.3259542
185	0xbea9822f	-0.33107135
186	0x3e4624f6	0.19350037
187	0xbe0b469f	-0.13601159
188	0x3e14e73e	0.14541337
189	0xbda20f48	-0.07913071
190	0xbe146471	-0.1449144
191	0xbe802a55	-0.25032297
192	0x3c90fe37	0.017699344
193	0xba807ad4	-0.0009802231
194	0xbdcc79af	-0.09984147
195	0x3ea77a2e	0.32710403
196	0xbd84142e	-0.064491615
197	0xbe505401	-0.20344545
198	0x3e716882	0.23575023
199	0x3d23328b	0.039843123
200	0xbde29e9b	-0.11065408
201	0xbe12a0c0	-0.14319134
202	0xbe56a73e	-0.20962235
203	0xbe54a0ec	-0.20764512
204	0xbe17eb7c	-0.14835924
205	0x3e87249d	0.2639512
206	0xbeee7677	-0.46574757
207	0xbe84adc5	-0.25913826
208	0xbe382931	-0.17984463
209	0x3d24813b	0.040162306
210	0xbe2e6d48	-0.17033875
211	0xbdaf0f1e	-0.08547805
212	0xbdf6a075	-0.120423235
213	0xbd5d37dc	-0.05400835
214	0xbc5fcd7e	-0.013659833
215	0xbe24a393	-0.16078024
216	0x3d99e9e6	0.07515316
217	0xbe7cccad	-0.24687453
218	0x3d5cc169	0.053895388
219	0xbd273861	-0.04082525
220	0x3e721ace	0.23643038
221	0x3d0ca822	0.03434003
222	0x3e934552	0.28763825
223	0xbdbc6c12	-0.092003
224	0xbdfd866a	-0.12379153
225	0xbdd9b44e	-0.106300935
226	0xbd2b5a1a	-0.041833974
227	0xbd5a5f4b	-0.053313535
228	0x3e21aa4e	0.15787622
229	0x3d031a99	0.032007787
230	0xbe3c3434	-0.18379289
231	0xbdf77eb7	-0.12084716
232	0xbe4999c1	-0.19687559
233	0x3e8f5880	0.27997208
234	0x3db3e1f9	0.08783335
235	0xbee87795	-0.45403734
236	0xbdc37359	-0.09543485
237	0x3d6d751c	0.057973012
238	0x3e9b67ed	0.30352727
239	0x3e106508	0.1410104
240	0x3e567ae5	0.20945318
241	0xbe4a1b2b	-0.19736926
242	0xbe85c9b6	-0.26130456
243	0x3e29171d	0.16512723
244	0x3dbdc79a	0.092665866
245	0x3e63a818	0.22232091
246	0xbec71554	-0.3888346
247	0x3e1af0ca	0.15130916
248	0x3da31925	0.0796378
249	0xbe5dfacc	-0.21677703
250	0xbe68765a	-0.22701398
251	0x3d571346	0.052508615
252	0x3eecfd0d	0.46286812
253	0xbe02d0fa	-0.1277503
254	0x3c8312e6	0.016000222
255	0x3e2699eb	0.16269653

fc2.bias f4 [128]
0	0xbce69094	-0.028145112
1	0x3f482d7f	0.7819442
2	0xbeb5486b	-0.35406813
3	0xbec3fe3f	-0.38279912
4	0xbd64f5ab	-0.05589835
5	0xbf10b896	-0.56531656
6	0xbe2c8260	-0.16846609
7	0xbee34e21	-0.44395545
8	0xbe17f7e9	-0.14840664
9	0xbe8cc108	-0.2749102
10	0xbe852f54	-0.2601267
11	0xbcbb9e0a	-0.022902507
12	0xbe4cf047	-0.20013534
13	0x3e9830a2	0.29724604
14	0xbeab601c	-0.33471763
15	0xbeb27f68	-0.34862828
16	0xbe6a7476	-0.22895989
17	0xbe741ec1	-0.23839857
18	0xbddc55bf	-0.10758542
19	0xbe04f9e0	-0.12985945
20	0xbe9247c1	-0.2857037
21	0xbeae0159	-0.33985403
22	0x3d2511f6	0.040300332
23	0xbe72cdf7	-0.23711382
24	0x3d0f93ec	0.03505318
25	0xbed3415d	-0.41260806
26	0xbe6bccd0	-0.23027349
27	0xbe876236	-0.26442116
28	0xbcc1e1a4	-0.023667164
29	0xbe0fb1b4	-0.14032632
30	0xbe373780	-0.17892265
31	0xbe90c21b	-0.2827309
32	0xbedc8267	-0.4306824
33	0xbdbfa2ce	-0.093572244
34	0xbe907945	-0.2821752
35	0xbe54e19e	-0.20789191
36	0xbe4a3210	-0.1974566
37	0xbd181472	-0.037128873
38	0xbeaddb3b	-0.33956322
39	0xbe69baf5	-0.22825225
40	0xbe77dd32	-0.24205473
41	0xbe7bdcb2	-0.24595907
42	0xbed12dd0	-0.40855265
43	0xbebeb499	-0.3724716
44	0xbce17233	-0.027520275
45	0xbe7efd99	-0.24901427
46	0xbeb47ff3	-0.35253868
47	0xbdc53d1e	-0.09630798
48	0x3ec96a6a	0.39339
49	0xbecfb393	-0.40566692
50	0xbed6621c	-0.41871727
51	0xbe1564f5	-0.14589293
52	0xbda29e54	-0.07940355
53	0xbdeebb4d	-0.116568185
54	0xbe4d8605	-0.20070656
55	0xbe7d032a	-0.24708238
56	0xbe863cbf	-0.2621822
57	0xbd7928f8	-0.060830086
58	0xbe4a6a6c	-0.19767159
59	0xbe8221cf	-0.2541642
60	0x3d001c17	0.03127679
61	0xbe4172ab	-0.18891399
62	0xbcf209e1	-0.029545726
63	0x3d92baef	0.07164561
64	0xbe158f78	-0.1460551
65	0x3f077c28	0.5292382
66	0xbec01f09	-0.37523678
67	0xbf0b5b04	-0.54435754
68	0xbe2cd881	-0.16879465
69	0xbe33eb64	-0.17570263
70	0xbe8f5823	-0.2799693
71	0x3c8572fc	0.01629018
72	0x3bc5a193	0.006031224
73	0xbe08673f	-0.13320635
74	0xbe623204	-0.22089392
75	0xbc1efed0	-0.009704307
76	0xbe4918df	-0.19638394
77	0xbd46891b	-0.048470598
78	0xbeb75288	-0.35805154
79	0xbf0147b2	-0.50500023
80	0xbe45c26b	-0.19312446
81	0xbeaac5eb	-0.33354124
82	0xbd28057e	-0.041020863
83	0xbe40393f	-0.18771838
84	0xbeca0dfe	-0.394638
85	0xbe1275e7	-0.14302789
86	0xbda81ce7	-0.08208638
87	0xbdbecd6b	-0.09316524
88	0xbe76cde7	-0.24101983
89	0xbe5306b6	-0.20608029
90	0xbd2177e9	-0.039420996
91	0xbf137458	-0.575994
92	0xbe7cdf49	-0.24694552
93	0xbeafab3d	-0.34310332
94	0xbe490947	-0.19632445
95	0xbd59fe89	-0.05322126
96	0xbdf7d393	-0.121009015
97	0xbe8dd8f9	-0.277046
98	0xbe38d9a0	-0.18051767
99	0xbd904e4e	-0.070461854
100	0xbe3989cf	-0.18118976
101	0xbe48ccd9	-0.19609393
102	0xbe704cef	-0.23466848
103	0xbe9b5518	-0.3033836
104	0xbe9aa0d0	-0.30200815
105	0xbed7f69f	-0.42180344
106	0xbe50f203	-0.2040482
107	0xbeb46d7d	-0.35239783
108	0xbe76636f	-0.24061368
109	0xbe2bcc6a	-0.16777197
110	0xbdc8d31e	-0.098058924
111	0xbe905b31	-0.28194574
112	0xbe478001	-0.19482423
113	0xbec2d6f6	-0.38054627
114	0x3e6c0a88	0.23050892
115	0xbed27422	-0.41104227
116	0xbdc5df8c	-0.09661779
117	0xbd1d074e	-0.038337044
118	0x3d50e6a3	0.051001202
119	0xbe712614	-0.23549682
120	0x3c4abd07	0.012374169
121	0xbe944aca	-0.2896331
122	0xbe0cc1b2	-0.13745764
123	0xbeb1e2c2	-0.34743315
124	0xbeb3897d	-0.35065833
125	0x3c11966f	0.008885964
126	0xbd03d33c	-0.03218387
127	0xbe9557c5	-0.29168525
